…
I1114 07:40:31.401432 25892 net.cpp:296] The NetState phase (0) differed from the phase (1) specified by a rule in layer test_input_layer
I1114 07:40:31.401477 25892 net.cpp:296] The NetState phase (0) differed from the phase (1) specified by a rule in layer accuracy
I1114 07:40:31.401832 25892 net.cpp:53] Initializing net from parameters: 
name: "ResNet10_msceleb"
state {
  phase: TRAIN
  level: 0
  stage: ""
}
layer {
  name: "train_input_layer"
  type: "Python"
  top: "data"
  top: "label"
  include {
    phase: TRAIN
  }
  python_param {
    module: "pythonLayer"
    layer: "train_input_layer"
  }
}
layer {
  name: "data_bn"
  type: "BatchNorm"
  bottom: "data"
  top: "data_bn"
  param {
    lr_mult: 0
    decay_mult: 0
  }
  param {
    lr_mult: 0
    decay_mult: 0
  }
  param {
    lr_mult: 0
    decay_mult: 0
  }
}
layer {
  name: "data_scale"
  type: "Scale"
  bottom: "data_bn"
  top: "data_bn"
  param {
    lr_mult: 1
    decay_mult: 1
  }
  param {
    lr_mult: 2
    decay_mult: 1
  }
  scale_param {
    bias_term: true
  }
}
layer {
  name: "conv1"
  type: "Convolution"
  bottom: "data_bn"
  top: "conv1"
  param {
    lr_mult: 1
    decay_mult: 1
  }
  param {
    lr_mult: 2
    decay_mult: 1
  }
  convolution_param {
    num_output: 64
    pad: 3
    kernel_size: 7
    stride: 2
    weight_filler {
      type: "msra"
      variance_norm: FAN_OUT
    }
    bias_filler {
      type: "constant"
      value: 0
    }
  }
}
layer {
  name: "conv1_bn"
  type: "BatchNorm"
  bottom: "conv1"
  top: "conv1"
  param {
    lr_mult: 0
    decay_mult: 0
  }
  param {
    lr_mult: 0
    decay_mult: 0
  }
  param {
    lr_mult: 0
    decay_mult: 0
  }
}
layer {
  name: "conv1_scale"
  type: "Scale"
  bottom: "conv1"
  top: "conv1"
  param {
    lr_mult: 1
    decay_mult: 1
  }
  param {
    lr_mult: 2
    decay_mult: 1
  }
  scale_param {
    bias_term: true
  }
}
layer {
  name: "conv1_relu"
  type: "ReLU"
  bottom: "conv1"
  top: "conv1"
}
layer {
  name: "conv1_pool"
  type: "Pooling"
  bottom: "conv1"
  top: "conv1_pool"
  pooling_param {
    kernel_size: 3
    stride: 2
  }
}
layer {
  name: "layer_64_1_conv1"
  type: "Convolution"
  bottom: "conv1_pool"
  top: "layer_64_1_conv1"
  param {
    lr_mult: 1
    decay_mult: 1
  }
  convolution_param {
    num_output: 64
    bias_term: false
    pad: 1
    kernel_size: 3
    stride: 1
    weight_filler {
      type: "msra"
    }
    bias_filler {
      type: "constant"
      value: 0
    }
  }
}
layer {
  name: "layer_64_1_bn2"
  type: "BatchNorm"
  bottom: "layer_64_1_conv1"
  top: "layer_64_1_conv1"
  param {
    lr_mult: 0
    decay_mult: 0
  }
  param {
    lr_mult: 0
    decay_mult: 0
  }
  param {
    lr_mult: 0
    decay_mult: 0
  }
}
layer {
  name: "layer_64_1_scale2"
  type: "Scale"
  bottom: "layer_64_1_conv1"
  top: "layer_64_1_conv1"
  param {
    lr_mult: 1
    decay_mult: 1
  }
  param {
    lr_mult: 2
    decay_mult: 1
  }
  scale_param {
    bias_term: true
  }
}
layer {
  name: "layer_64_1_relu2"
  type: "ReLU"
  bottom: "layer_64_1_conv1"
  top: "layer_64_1_conv1"
}
layer {
  name: "layer_64_1_conv2"
  type: "Convolution"
  bottom: "layer_64_1_conv1"
  top: "layer_64_1_conv2"
  param {
    lr_mult: 1
    decay_mult: 1
  }
  convolution_param {
    num_output: 64
    bias_term: false
    pad: 1
    kernel_size: 3
    stride: 1
    weight_filler {
      type: "msra"
    }
    bias_filler {
      type: "constant"
      value: 0
    }
  }
}
layer {
  name: "layer_64_1_sum"
  type: "Eltwise"
  bottom: "layer_64_1_conv2"
  bottom: "conv1_pool"
  top: "layer_64_1_sum"
}
layer {
  name: "layer_128_1_bn1"
  type: "BatchNorm"
  bottom: "layer_64_1_sum"
  top: "layer_128_1_bn1"
  param {
    lr_mult: 0
    decay_mult: 0
  }
  param {
    lr_mult: 0
    decay_mult: 0
  }
  param {
    lr_mult: 0
    decay_mult: 0
  }
}
layer {
  name: "layer_128_1_scale1"
  type: "Scale"
  bottom: "layer_128_1_bn1"
  top: "layer_128_1_bn1"
  param {
    lr_mult: 1
    decay_mult: 1
  }
  param {
    lr_mult: 2
    decay_mult: 1
  }
  scale_param {
    bias_term: true
  }
}
layer {
  name: "layer_128_1_relu1"
  type: "ReLU"
  bottom: "layer_128_1_bn1"
  top: "layer_128_1_bn1"
}
layer {
  name: "layer_128_1_conv1"
  type: "Convolution"
  bottom: "layer_128_1_bn1"
  top: "layer_128_1_conv1"
  param {
    lr_mult: 1
    decay_mult: 1
  }
  convolution_param {
    num_output: 128
    bias_term: false
    pad: 1
    kernel_size: 3
    stride: 2
    weight_filler {
      type: "msra"
    }
    bias_filler {
      type: "constant"
      value: 0
    }
  }
}
layer {
  name: "layer_128_1_bn2"
  type: "BatchNorm"
  bottom: "layer_128_1_conv1"
  top: "layer_128_1_conv1"
  param {
    lr_mult: 0
    decay_mult: 0
  }
  param {
    lr_mult: 0
    decay_mult: 0
  }
  param {
    lr_mult: 0
    decay_mult: 0
  }
}
layer {
  name: "layer_128_1_scale2"
  type: "Scale"
  bottom: "layer_128_1_conv1"
  top: "layer_128_1_conv1"
  param {
    lr_mult: 1
    decay_mult: 1
  }
  param {
    lr_mult: 2
    decay_mult: 1
  }
  scale_param {
    bias_term: true
  }
}
layer {
  name: "layer_128_1_relu2"
  type: "ReLU"
  bottom: "layer_128_1_conv1"
  top: "layer_128_1_conv1"
}
layer {
  name: "layer_128_1_conv2"
  type: "Convolution"
  bottom: "layer_128_1_conv1"
  top: "layer_128_1_conv2"
  param {
    lr_mult: 1
    decay_mult: 1
  }
  convolution_param {
    num_output: 128
    bias_term: false
    pad: 1
    kernel_size: 3
    stride: 1
    weight_filler {
      type: "msra"
    }
    bias_filler {
      type: "constant"
      value: 0
    }
  }
}
layer {
  name: "layer_128_1_conv_expand"
  type: "Convolution"
  bottom: "layer_128_1_bn1"
  top: "layer_128_1_conv_expand"
  param {
    lr_mult: 1
    decay_mult: 1
  }
  convolution_param {
    num_output: 128
    bias_term: false
    pad: 0
    kernel_size: 1
    stride: 2
    weight_filler {
      type: "msra"
    }
    bias_filler {
      type: "constant"
      value: 0
    }
  }
}
layer {
  name: "layer_128_1_sum"
  type: "Eltwise"
  bottom: "layer_128_1_conv2"
  bottom: "layer_128_1_conv_expand"
  top: "layer_128_1_sum"
}
layer {
  name: "layer_256_1_bn1"
  type: "BatchNorm"
  bottom: "layer_128_1_sum"
  top: "layer_256_1_bn1"
  param {
    lr_mult: 0
    decay_mult: 0
  }
  param {
    lr_mult: 0
    decay_mult: 0
  }
  param {
    lr_mult: 0
    decay_mult: 0
  }
}
layer {
  name: "layer_256_1_scale1"
  type: "Scale"
  bottom: "layer_256_1_bn1"
  top: "layer_256_1_bn1"
  param {
    lr_mult: 1
    decay_mult: 1
  }
  param {
    lr_mult: 2
    decay_mult: 1
  }
  scale_param {
    bias_term: true
  }
}
layer {
  name: "layer_256_1_relu1"
  type: "ReLU"
  bottom: "layer_256_1_bn1"
  top: "layer_256_1_bn1"
}
layer {
  name: "layer_256_1_conv1"
  type: "Convolution"
  bottom: "layer_256_1_bn1"
  top: "layer_256_1_conv1"
  param {
    lr_mult: 1
    decay_mult: 1
  }
  convolution_param {
    num_output: 256
    bias_term: false
    pad: 1
    kernel_size: 3
    stride: 2
    weight_filler {
      type: "msra"
    }
    bias_filler {
      type: "constant"
      value: 0
    }
  }
}
layer {
  name: "layer_256_1_bn2"
  type: "BatchNorm"
  bottom: "layer_256_1_conv1"
  top: "layer_256_1_conv1"
  param {
    lr_mult: 0
    decay_mult: 0
  }
  param {
    lr_mult: 0
    decay_mult: 0
  }
  param {
    lr_mult: 0
    decay_mult: 0
  }
}
layer {
  name: "layer_256_1_scale2"
  type: "Scale"
  bottom: "layer_256_1_conv1"
  top: "layer_256_1_conv1"
  param {
    lr_mult: 1
    decay_mult: 1
  }
  param {
    lr_mult: 2
    decay_mult: 1
  }
  scale_param {
    bias_term: true
  }
}
layer {
  name: "layer_256_1_relu2"
  type: "ReLU"
  bottom: "layer_256_1_conv1"
  top: "layer_256_1_conv1"
}
layer {
  name: "layer_256_1_conv2"
  type: "Convolution"
  bottom: "layer_256_1_conv1"
  top: "layer_256_1_conv2"
  param {
    lr_mult: 1
    decay_mult: 1
  }
  convolution_param {
    num_output: 256
    bias_term: false
    pad: 1
    kernel_size: 3
    stride: 1
    weight_filler {
      type: "msra"
    }
    bias_filler {
      type: "constant"
      value: 0
    }
  }
}
layer {
  name: "layer_256_1_conv_expand"
  type: "Convolution"
  bottom: "layer_256_1_bn1"
  top: "layer_256_1_conv_expand"
  param {
    lr_mult: 1
    decay_mult: 1
  }
  convolution_param {
    num_output: 256
    bias_term: false
    pad: 0
    kernel_size: 1
    stride: 2
    weight_filler {
      type: "msra"
    }
    bias_filler {
      type: "constant"
      value: 0
    }
  }
}
layer {
  name: "layer_256_1_sum"
  type: "Eltwise"
  bottom: "layer_256_1_conv2"
  bottom: "layer_256_1_conv_expand"
  top: "layer_256_1_sum"
}
layer {
  name: "layer_512_1_bn1"
  type: "BatchNorm"
  bottom: "layer_256_1_sum"
  top: "layer_512_1_bn1"
  param {
    lr_mult: 0
    decay_mult: 0
  }
  param {
    lr_mult: 0
    decay_mult: 0
  }
  param {
    lr_mult: 0
    decay_mult: 0
  }
}
layer {
  name: "layer_512_1_scale1"
  type: "Scale"
  bottom: "layer_512_1_bn1"
  top: "layer_512_1_bn1"
  param {
    lr_mult: 1
    decay_mult: 1
  }
  param {
    lr_mult: 2
    decay_mult: 1
  }
  scale_param {
    bias_term: true
  }
}
layer {
  name: "layer_512_1_relu1"
  type: "ReLU"
  bottom: "layer_512_1_bn1"
  top: "layer_512_1_bn1"
}
layer {
  name: "layer_512_1_conv1"
  type: "Convolution"
  bottom: "layer_512_1_bn1"
  top: "layer_512_1_conv1"
  param {
    lr_mult: 1
    decay_mult: 1
  }
  convolution_param {
    num_output: 512
    bias_term: false
    pad: 1
    kernel_size: 3
    stride: 2
    weight_filler {
      type: "msra"
    }
    bias_filler {
      type: "constant"
      value: 0
    }
  }
}
layer {
  name: "layer_512_1_bn2"
  type: "BatchNorm"
  bottom: "layer_512_1_conv1"
  top: "layer_512_1_conv1"
  param {
    lr_mult: 0
    decay_mult: 0
  }
  param {
    lr_mult: 0
    decay_mult: 0
  }
  param {
    lr_mult: 0
    decay_mult: 0
  }
}
layer {
  name: "layer_512_1_scale2"
  type: "Scale"
  bottom: "layer_512_1_conv1"
  top: "layer_512_1_conv1"
  param {
    lr_mult: 1
    decay_mult: 1
  }
  param {
    lr_mult: 2
    decay_mult: 1
  }
  scale_param {
    bias_term: true
  }
}
layer {
  name: "layer_512_1_relu2"
  type: "ReLU"
  bottom: "layer_512_1_conv1"
  top: "layer_512_1_conv1"
}
layer {
  name: "layer_512_1_conv2"
  type: "Convolution"
  bottom: "layer_512_1_conv1"
  top: "layer_512_1_conv2"
  param {
    lr_mult: 1
    decay_mult: 1
  }
  convolution_param {
    num_output: 512
    bias_term: false
    pad: 1
    kernel_size: 3
    stride: 1
    weight_filler {
      type: "msra"
    }
    bias_filler {
      type: "constant"
      value: 0
    }
  }
}
layer {
  name: "layer_512_1_conv_expand"
  type: "Convolution"
  bottom: "layer_512_1_bn1"
  top: "layer_512_1_conv_expand"
  param {
    lr_mult: 1
    decay_mult: 1
  }
  convolution_param {
    num_output: 512
    bias_term: false
    pad: 0
    kernel_size: 1
    stride: 2
    weight_filler {
      type: "msra"
    }
    bias_filler {
      type: "constant"
      value: 0
    }
  }
}
layer {
  name: "layer_512_1_sum"
  type: "Eltwise"
  bottom: "layer_512_1_conv2"
  bottom: "layer_512_1_conv_expand"
  top: "layer_512_1_sum"
}
layer {
  name: "last_bn"
  type: "BatchNorm"
  bottom: "layer_512_1_sum"
  top: "layer_512_1_sum"
  param {
    lr_mult: 0
    decay_mult: 0
  }
  param {
    lr_mult: 0
    decay_mult: 0
  }
  param {
    lr_mult: 0
    decay_mult: 0
  }
}
layer {
  name: "last_scale"
  type: "Scale"
  bottom: "layer_512_1_sum"
  top: "layer_512_1_sum"
  param {
    lr_mult: 1
    decay_mult: 1
  }
  param {
    lr_mult: 2
    decay_mult: 1
  }
  scale_param {
    bias_term: true
  }
}
layer {
  name: "last_relu"
  type: "ReLU"
  bottom: "layer_512_1_sum"
  top: "layer_512_1_sum"
}
layer {
  name: "global_pool"
  type: "Pooling"
  bottom: "layer_512_1_sum"
  top: "global_pool"
  pooling_param {
    pool: AVE
    global_pooling: true
  }
}
layer {
  name: "score"
  type: "InnerProduct"
  bottom: "global_pool"
  top: "score"
  param {
    lr_mult: 10
    decay_mult: 1
  }
  param {
    lr_mult: 10
    decay_mult: 1
  }
  inner_product_param {
    num_output: 10000
  }
}
layer {
  name: "loss"
  type: "SoftmaxWithLoss"
  bottom: "score"
  bottom: "label"
  top: "loss"
}
I1114 07:40:31.402129 25892 layer_factory.hpp:77] Creating layer train_input_layer
I1114 07:40:32.107414 25892 net.cpp:86] Creating Layer train_input_layer
I1114 07:40:32.107480 25892 net.cpp:382] train_input_layer -> data
I1114 07:40:32.107527 25892 net.cpp:382] train_input_layer -> label
I1114 07:41:34.168386 25892 net.cpp:124] Setting up train_input_layer
I1114 07:41:34.168462 25892 net.cpp:131] Top shape: 32 3 224 224 (4816896)
I1114 07:41:34.168473 25892 net.cpp:131] Top shape: 32 1 (32)
I1114 07:41:34.168476 25892 net.cpp:139] Memory required for data: 19267712
I1114 07:41:34.168506 25892 layer_factory.hpp:77] Creating layer data_bn
I1114 07:41:34.168540 25892 net.cpp:86] Creating Layer data_bn
I1114 07:41:34.168550 25892 net.cpp:408] data_bn <- data
I1114 07:41:34.168576 25892 net.cpp:382] data_bn -> data_bn
I1114 07:41:34.171978 25892 net.cpp:124] Setting up data_bn
I1114 07:41:34.172009 25892 net.cpp:131] Top shape: 32 3 224 224 (4816896)
I1114 07:41:34.172015 25892 net.cpp:139] Memory required for data: 38535296
I1114 07:41:34.172049 25892 layer_factory.hpp:77] Creating layer data_scale
I1114 07:41:34.172075 25892 net.cpp:86] Creating Layer data_scale
I1114 07:41:34.172086 25892 net.cpp:408] data_scale <- data_bn
I1114 07:41:34.172094 25892 net.cpp:369] data_scale -> data_bn (in-place)
I1114 07:41:34.172169 25892 layer_factory.hpp:77] Creating layer data_scale
I1114 07:41:34.172394 25892 net.cpp:124] Setting up data_scale
I1114 07:41:34.172415 25892 net.cpp:131] Top shape: 32 3 224 224 (4816896)
I1114 07:41:34.172420 25892 net.cpp:139] Memory required for data: 57802880
I1114 07:41:34.172430 25892 layer_factory.hpp:77] Creating layer conv1
I1114 07:41:34.172466 25892 net.cpp:86] Creating Layer conv1
I1114 07:41:34.172472 25892 net.cpp:408] conv1 <- data_bn
I1114 07:41:34.172482 25892 net.cpp:382] conv1 -> conv1
I1114 07:41:35.246412 25892 net.cpp:124] Setting up conv1
I1114 07:41:35.246459 25892 net.cpp:131] Top shape: 32 64 112 112 (25690112)
I1114 07:41:35.246464 25892 net.cpp:139] Memory required for data: 160563328
I1114 07:41:35.246480 25892 layer_factory.hpp:77] Creating layer conv1_bn
I1114 07:41:35.246511 25892 net.cpp:86] Creating Layer conv1_bn
I1114 07:41:35.246520 25892 net.cpp:408] conv1_bn <- conv1
I1114 07:41:35.246529 25892 net.cpp:369] conv1_bn -> conv1 (in-place)
I1114 07:41:35.246745 25892 net.cpp:124] Setting up conv1_bn
I1114 07:41:35.246763 25892 net.cpp:131] Top shape: 32 64 112 112 (25690112)
I1114 07:41:35.246769 25892 net.cpp:139] Memory required for data: 263323776
I1114 07:41:35.246788 25892 layer_factory.hpp:77] Creating layer conv1_scale
I1114 07:41:35.246799 25892 net.cpp:86] Creating Layer conv1_scale
I1114 07:41:35.246803 25892 net.cpp:408] conv1_scale <- conv1
I1114 07:41:35.246810 25892 net.cpp:369] conv1_scale -> conv1 (in-place)
I1114 07:41:35.246858 25892 layer_factory.hpp:77] Creating layer conv1_scale
I1114 07:41:35.247004 25892 net.cpp:124] Setting up conv1_scale
I1114 07:41:35.247021 25892 net.cpp:131] Top shape: 32 64 112 112 (25690112)
I1114 07:41:35.247027 25892 net.cpp:139] Memory required for data: 366084224
I1114 07:41:35.247033 25892 layer_factory.hpp:77] Creating layer conv1_relu
I1114 07:41:35.247045 25892 net.cpp:86] Creating Layer conv1_relu
I1114 07:41:35.247051 25892 net.cpp:408] conv1_relu <- conv1
I1114 07:41:35.247056 25892 net.cpp:369] conv1_relu -> conv1 (in-place)
I1114 07:41:35.247583 25892 net.cpp:124] Setting up conv1_relu
I1114 07:41:35.247603 25892 net.cpp:131] Top shape: 32 64 112 112 (25690112)
I1114 07:41:35.247608 25892 net.cpp:139] Memory required for data: 468844672
I1114 07:41:35.247613 25892 layer_factory.hpp:77] Creating layer conv1_pool
I1114 07:41:35.247632 25892 net.cpp:86] Creating Layer conv1_pool
I1114 07:41:35.247642 25892 net.cpp:408] conv1_pool <- conv1
I1114 07:41:35.247648 25892 net.cpp:382] conv1_pool -> conv1_pool
I1114 07:41:35.247720 25892 net.cpp:124] Setting up conv1_pool
I1114 07:41:35.247736 25892 net.cpp:131] Top shape: 32 64 56 56 (6422528)
I1114 07:41:35.247741 25892 net.cpp:139] Memory required for data: 494534784
I1114 07:41:35.247745 25892 layer_factory.hpp:77] Creating layer conv1_pool_conv1_pool_0_split
I1114 07:41:35.247758 25892 net.cpp:86] Creating Layer conv1_pool_conv1_pool_0_split
I1114 07:41:35.247768 25892 net.cpp:408] conv1_pool_conv1_pool_0_split <- conv1_pool
I1114 07:41:35.247776 25892 net.cpp:382] conv1_pool_conv1_pool_0_split -> conv1_pool_conv1_pool_0_split_0
I1114 07:41:35.247810 25892 net.cpp:382] conv1_pool_conv1_pool_0_split -> conv1_pool_conv1_pool_0_split_1
I1114 07:41:35.247861 25892 net.cpp:124] Setting up conv1_pool_conv1_pool_0_split
I1114 07:41:35.247874 25892 net.cpp:131] Top shape: 32 64 56 56 (6422528)
I1114 07:41:35.247879 25892 net.cpp:131] Top shape: 32 64 56 56 (6422528)
I1114 07:41:35.247886 25892 net.cpp:139] Memory required for data: 545915008
I1114 07:41:35.247894 25892 layer_factory.hpp:77] Creating layer layer_64_1_conv1
I1114 07:41:35.247906 25892 net.cpp:86] Creating Layer layer_64_1_conv1
I1114 07:41:35.247915 25892 net.cpp:408] layer_64_1_conv1 <- conv1_pool_conv1_pool_0_split_0
I1114 07:41:35.247922 25892 net.cpp:382] layer_64_1_conv1 -> layer_64_1_conv1
I1114 07:41:35.255723 25892 net.cpp:124] Setting up layer_64_1_conv1
I1114 07:41:35.255755 25892 net.cpp:131] Top shape: 32 64 56 56 (6422528)
I1114 07:41:35.255760 25892 net.cpp:139] Memory required for data: 571605120
I1114 07:41:35.255769 25892 layer_factory.hpp:77] Creating layer layer_64_1_bn2
I1114 07:41:35.255790 25892 net.cpp:86] Creating Layer layer_64_1_bn2
I1114 07:41:35.255796 25892 net.cpp:408] layer_64_1_bn2 <- layer_64_1_conv1
I1114 07:41:35.255803 25892 net.cpp:369] layer_64_1_bn2 -> layer_64_1_conv1 (in-place)
I1114 07:41:35.259048 25892 net.cpp:124] Setting up layer_64_1_bn2
I1114 07:41:35.259078 25892 net.cpp:131] Top shape: 32 64 56 56 (6422528)
I1114 07:41:35.259083 25892 net.cpp:139] Memory required for data: 597295232
I1114 07:41:35.259093 25892 layer_factory.hpp:77] Creating layer layer_64_1_scale2
I1114 07:41:35.259112 25892 net.cpp:86] Creating Layer layer_64_1_scale2
I1114 07:41:35.259119 25892 net.cpp:408] layer_64_1_scale2 <- layer_64_1_conv1
I1114 07:41:35.259126 25892 net.cpp:369] layer_64_1_scale2 -> layer_64_1_conv1 (in-place)
I1114 07:41:35.259196 25892 layer_factory.hpp:77] Creating layer layer_64_1_scale2
I1114 07:41:35.259330 25892 net.cpp:124] Setting up layer_64_1_scale2
I1114 07:41:35.259347 25892 net.cpp:131] Top shape: 32 64 56 56 (6422528)
I1114 07:41:35.259352 25892 net.cpp:139] Memory required for data: 622985344
I1114 07:41:35.259368 25892 layer_factory.hpp:77] Creating layer layer_64_1_relu2
I1114 07:41:35.259384 25892 net.cpp:86] Creating Layer layer_64_1_relu2
I1114 07:41:35.259390 25892 net.cpp:408] layer_64_1_relu2 <- layer_64_1_conv1
I1114 07:41:35.259397 25892 net.cpp:369] layer_64_1_relu2 -> layer_64_1_conv1 (in-place)
I1114 07:41:35.259948 25892 net.cpp:124] Setting up layer_64_1_relu2
I1114 07:41:35.259973 25892 net.cpp:131] Top shape: 32 64 56 56 (6422528)
I1114 07:41:35.259977 25892 net.cpp:139] Memory required for data: 648675456
I1114 07:41:35.259982 25892 layer_factory.hpp:77] Creating layer layer_64_1_conv2
I1114 07:41:35.259994 25892 net.cpp:86] Creating Layer layer_64_1_conv2
I1114 07:41:35.260007 25892 net.cpp:408] layer_64_1_conv2 <- layer_64_1_conv1
I1114 07:41:35.260020 25892 net.cpp:382] layer_64_1_conv2 -> layer_64_1_conv2
I1114 07:41:35.266386 25892 net.cpp:124] Setting up layer_64_1_conv2
I1114 07:41:35.266414 25892 net.cpp:131] Top shape: 32 64 56 56 (6422528)
I1114 07:41:35.266420 25892 net.cpp:139] Memory required for data: 674365568
I1114 07:41:35.266428 25892 layer_factory.hpp:77] Creating layer layer_64_1_sum
I1114 07:41:35.266453 25892 net.cpp:86] Creating Layer layer_64_1_sum
I1114 07:41:35.266459 25892 net.cpp:408] layer_64_1_sum <- layer_64_1_conv2
I1114 07:41:35.266465 25892 net.cpp:408] layer_64_1_sum <- conv1_pool_conv1_pool_0_split_1
I1114 07:41:35.266472 25892 net.cpp:382] layer_64_1_sum -> layer_64_1_sum
I1114 07:41:35.266546 25892 net.cpp:124] Setting up layer_64_1_sum
I1114 07:41:35.266564 25892 net.cpp:131] Top shape: 32 64 56 56 (6422528)
I1114 07:41:35.266569 25892 net.cpp:139] Memory required for data: 700055680
I1114 07:41:35.266577 25892 layer_factory.hpp:77] Creating layer layer_128_1_bn1
I1114 07:41:35.266597 25892 net.cpp:86] Creating Layer layer_128_1_bn1
I1114 07:41:35.266602 25892 net.cpp:408] layer_128_1_bn1 <- layer_64_1_sum
I1114 07:41:35.266607 25892 net.cpp:382] layer_128_1_bn1 -> layer_128_1_bn1
I1114 07:41:35.266855 25892 net.cpp:124] Setting up layer_128_1_bn1
I1114 07:41:35.266872 25892 net.cpp:131] Top shape: 32 64 56 56 (6422528)
I1114 07:41:35.266876 25892 net.cpp:139] Memory required for data: 725745792
I1114 07:41:35.266885 25892 layer_factory.hpp:77] Creating layer layer_128_1_scale1
I1114 07:41:35.266908 25892 net.cpp:86] Creating Layer layer_128_1_scale1
I1114 07:41:35.266913 25892 net.cpp:408] layer_128_1_scale1 <- layer_128_1_bn1
I1114 07:41:35.266919 25892 net.cpp:369] layer_128_1_scale1 -> layer_128_1_bn1 (in-place)
I1114 07:41:35.266971 25892 layer_factory.hpp:77] Creating layer layer_128_1_scale1
I1114 07:41:35.267107 25892 net.cpp:124] Setting up layer_128_1_scale1
I1114 07:41:35.267123 25892 net.cpp:131] Top shape: 32 64 56 56 (6422528)
I1114 07:41:35.267127 25892 net.cpp:139] Memory required for data: 751435904
I1114 07:41:35.267134 25892 layer_factory.hpp:77] Creating layer layer_128_1_relu1
I1114 07:41:35.267151 25892 net.cpp:86] Creating Layer layer_128_1_relu1
I1114 07:41:35.267156 25892 net.cpp:408] layer_128_1_relu1 <- layer_128_1_bn1
I1114 07:41:35.267161 25892 net.cpp:369] layer_128_1_relu1 -> layer_128_1_bn1 (in-place)
I1114 07:41:35.269968 25892 net.cpp:124] Setting up layer_128_1_relu1
I1114 07:41:35.269995 25892 net.cpp:131] Top shape: 32 64 56 56 (6422528)
I1114 07:41:35.270000 25892 net.cpp:139] Memory required for data: 777126016
I1114 07:41:35.270009 25892 layer_factory.hpp:77] Creating layer layer_128_1_bn1_layer_128_1_relu1_0_split
I1114 07:41:35.270027 25892 net.cpp:86] Creating Layer layer_128_1_bn1_layer_128_1_relu1_0_split
I1114 07:41:35.270033 25892 net.cpp:408] layer_128_1_bn1_layer_128_1_relu1_0_split <- layer_128_1_bn1
I1114 07:41:35.270045 25892 net.cpp:382] layer_128_1_bn1_layer_128_1_relu1_0_split -> layer_128_1_bn1_layer_128_1_relu1_0_split_0
I1114 07:41:35.270063 25892 net.cpp:382] layer_128_1_bn1_layer_128_1_relu1_0_split -> layer_128_1_bn1_layer_128_1_relu1_0_split_1
I1114 07:41:35.270120 25892 net.cpp:124] Setting up layer_128_1_bn1_layer_128_1_relu1_0_split
I1114 07:41:35.270136 25892 net.cpp:131] Top shape: 32 64 56 56 (6422528)
I1114 07:41:35.270143 25892 net.cpp:131] Top shape: 32 64 56 56 (6422528)
I1114 07:41:35.270145 25892 net.cpp:139] Memory required for data: 828506240
I1114 07:41:35.270150 25892 layer_factory.hpp:77] Creating layer layer_128_1_conv1
I1114 07:41:35.270164 25892 net.cpp:86] Creating Layer layer_128_1_conv1
I1114 07:41:35.270176 25892 net.cpp:408] layer_128_1_conv1 <- layer_128_1_bn1_layer_128_1_relu1_0_split_0
I1114 07:41:35.270186 25892 net.cpp:382] layer_128_1_conv1 -> layer_128_1_conv1
I1114 07:41:35.282004 25892 net.cpp:124] Setting up layer_128_1_conv1
I1114 07:41:35.282034 25892 net.cpp:131] Top shape: 32 128 28 28 (3211264)
I1114 07:41:35.282039 25892 net.cpp:139] Memory required for data: 841351296
I1114 07:41:35.282047 25892 layer_factory.hpp:77] Creating layer layer_128_1_bn2
I1114 07:41:35.282064 25892 net.cpp:86] Creating Layer layer_128_1_bn2
I1114 07:41:35.282071 25892 net.cpp:408] layer_128_1_bn2 <- layer_128_1_conv1
I1114 07:41:35.282081 25892 net.cpp:369] layer_128_1_bn2 -> layer_128_1_conv1 (in-place)
I1114 07:41:35.285017 25892 net.cpp:124] Setting up layer_128_1_bn2
I1114 07:41:35.285048 25892 net.cpp:131] Top shape: 32 128 28 28 (3211264)
I1114 07:41:35.285053 25892 net.cpp:139] Memory required for data: 854196352
I1114 07:41:35.285073 25892 layer_factory.hpp:77] Creating layer layer_128_1_scale2
I1114 07:41:35.285082 25892 net.cpp:86] Creating Layer layer_128_1_scale2
I1114 07:41:35.285095 25892 net.cpp:408] layer_128_1_scale2 <- layer_128_1_conv1
I1114 07:41:35.285107 25892 net.cpp:369] layer_128_1_scale2 -> layer_128_1_conv1 (in-place)
I1114 07:41:35.285161 25892 layer_factory.hpp:77] Creating layer layer_128_1_scale2
I1114 07:41:35.285303 25892 net.cpp:124] Setting up layer_128_1_scale2
I1114 07:41:35.285320 25892 net.cpp:131] Top shape: 32 128 28 28 (3211264)
I1114 07:41:35.285326 25892 net.cpp:139] Memory required for data: 867041408
I1114 07:41:35.285336 25892 layer_factory.hpp:77] Creating layer layer_128_1_relu2
I1114 07:41:35.285364 25892 net.cpp:86] Creating Layer layer_128_1_relu2
I1114 07:41:35.285374 25892 net.cpp:408] layer_128_1_relu2 <- layer_128_1_conv1
I1114 07:41:35.285382 25892 net.cpp:369] layer_128_1_relu2 -> layer_128_1_conv1 (in-place)
I1114 07:41:35.288018 25892 net.cpp:124] Setting up layer_128_1_relu2
I1114 07:41:35.288048 25892 net.cpp:131] Top shape: 32 128 28 28 (3211264)
I1114 07:41:35.288053 25892 net.cpp:139] Memory required for data: 879886464
I1114 07:41:35.288058 25892 layer_factory.hpp:77] Creating layer layer_128_1_conv2
I1114 07:41:35.288072 25892 net.cpp:86] Creating Layer layer_128_1_conv2
I1114 07:41:35.288089 25892 net.cpp:408] layer_128_1_conv2 <- layer_128_1_conv1
I1114 07:41:35.288100 25892 net.cpp:382] layer_128_1_conv2 -> layer_128_1_conv2
I1114 07:41:35.295655 25892 net.cpp:124] Setting up layer_128_1_conv2
I1114 07:41:35.295683 25892 net.cpp:131] Top shape: 32 128 28 28 (3211264)
I1114 07:41:35.295689 25892 net.cpp:139] Memory required for data: 892731520
I1114 07:41:35.295696 25892 layer_factory.hpp:77] Creating layer layer_128_1_conv_expand
I1114 07:41:35.295714 25892 net.cpp:86] Creating Layer layer_128_1_conv_expand
I1114 07:41:35.295729 25892 net.cpp:408] layer_128_1_conv_expand <- layer_128_1_bn1_layer_128_1_relu1_0_split_1
I1114 07:41:35.295738 25892 net.cpp:382] layer_128_1_conv_expand -> layer_128_1_conv_expand
I1114 07:41:35.299762 25892 net.cpp:124] Setting up layer_128_1_conv_expand
I1114 07:41:35.299793 25892 net.cpp:131] Top shape: 32 128 28 28 (3211264)
I1114 07:41:35.299799 25892 net.cpp:139] Memory required for data: 905576576
I1114 07:41:35.299808 25892 layer_factory.hpp:77] Creating layer layer_128_1_sum
I1114 07:41:35.299829 25892 net.cpp:86] Creating Layer layer_128_1_sum
I1114 07:41:35.299836 25892 net.cpp:408] layer_128_1_sum <- layer_128_1_conv2
I1114 07:41:35.299842 25892 net.cpp:408] layer_128_1_sum <- layer_128_1_conv_expand
I1114 07:41:35.299849 25892 net.cpp:382] layer_128_1_sum -> layer_128_1_sum
I1114 07:41:35.299907 25892 net.cpp:124] Setting up layer_128_1_sum
I1114 07:41:35.299922 25892 net.cpp:131] Top shape: 32 128 28 28 (3211264)
I1114 07:41:35.299935 25892 net.cpp:139] Memory required for data: 918421632
I1114 07:41:35.299939 25892 layer_factory.hpp:77] Creating layer layer_256_1_bn1
I1114 07:41:35.299952 25892 net.cpp:86] Creating Layer layer_256_1_bn1
I1114 07:41:35.299962 25892 net.cpp:408] layer_256_1_bn1 <- layer_128_1_sum
I1114 07:41:35.299971 25892 net.cpp:382] layer_256_1_bn1 -> layer_256_1_bn1
I1114 07:41:35.300209 25892 net.cpp:124] Setting up layer_256_1_bn1
I1114 07:41:35.300226 25892 net.cpp:131] Top shape: 32 128 28 28 (3211264)
I1114 07:41:35.300231 25892 net.cpp:139] Memory required for data: 931266688
I1114 07:41:35.300247 25892 layer_factory.hpp:77] Creating layer layer_256_1_scale1
I1114 07:41:35.300267 25892 net.cpp:86] Creating Layer layer_256_1_scale1
I1114 07:41:35.300272 25892 net.cpp:408] layer_256_1_scale1 <- layer_256_1_bn1
I1114 07:41:35.300282 25892 net.cpp:369] layer_256_1_scale1 -> layer_256_1_bn1 (in-place)
I1114 07:41:35.300333 25892 layer_factory.hpp:77] Creating layer layer_256_1_scale1
I1114 07:41:35.300470 25892 net.cpp:124] Setting up layer_256_1_scale1
I1114 07:41:35.300516 25892 net.cpp:131] Top shape: 32 128 28 28 (3211264)
I1114 07:41:35.300527 25892 net.cpp:139] Memory required for data: 944111744
I1114 07:41:35.300536 25892 layer_factory.hpp:77] Creating layer layer_256_1_relu1
I1114 07:41:35.300552 25892 net.cpp:86] Creating Layer layer_256_1_relu1
I1114 07:41:35.300557 25892 net.cpp:408] layer_256_1_relu1 <- layer_256_1_bn1
I1114 07:41:35.300565 25892 net.cpp:369] layer_256_1_relu1 -> layer_256_1_bn1 (in-place)
I1114 07:41:35.302798 25892 net.cpp:124] Setting up layer_256_1_relu1
I1114 07:41:35.302827 25892 net.cpp:131] Top shape: 32 128 28 28 (3211264)
I1114 07:41:35.302832 25892 net.cpp:139] Memory required for data: 956956800
I1114 07:41:35.302837 25892 layer_factory.hpp:77] Creating layer layer_256_1_bn1_layer_256_1_relu1_0_split
I1114 07:41:35.302850 25892 net.cpp:86] Creating Layer layer_256_1_bn1_layer_256_1_relu1_0_split
I1114 07:41:35.302889 25892 net.cpp:408] layer_256_1_bn1_layer_256_1_relu1_0_split <- layer_256_1_bn1
I1114 07:41:35.302898 25892 net.cpp:382] layer_256_1_bn1_layer_256_1_relu1_0_split -> layer_256_1_bn1_layer_256_1_relu1_0_split_0
I1114 07:41:35.302908 25892 net.cpp:382] layer_256_1_bn1_layer_256_1_relu1_0_split -> layer_256_1_bn1_layer_256_1_relu1_0_split_1
I1114 07:41:35.302974 25892 net.cpp:124] Setting up layer_256_1_bn1_layer_256_1_relu1_0_split
I1114 07:41:35.302992 25892 net.cpp:131] Top shape: 32 128 28 28 (3211264)
I1114 07:41:35.302997 25892 net.cpp:131] Top shape: 32 128 28 28 (3211264)
I1114 07:41:35.303002 25892 net.cpp:139] Memory required for data: 982646912
I1114 07:41:35.303006 25892 layer_factory.hpp:77] Creating layer layer_256_1_conv1
I1114 07:41:35.303020 25892 net.cpp:86] Creating Layer layer_256_1_conv1
I1114 07:41:35.303028 25892 net.cpp:408] layer_256_1_conv1 <- layer_256_1_bn1_layer_256_1_relu1_0_split_0
I1114 07:41:35.303042 25892 net.cpp:382] layer_256_1_conv1 -> layer_256_1_conv1
I1114 07:41:35.309836 25892 net.cpp:124] Setting up layer_256_1_conv1
I1114 07:41:35.309861 25892 net.cpp:131] Top shape: 32 256 14 14 (1605632)
I1114 07:41:35.309866 25892 net.cpp:139] Memory required for data: 989069440
I1114 07:41:35.309877 25892 layer_factory.hpp:77] Creating layer layer_256_1_bn2
I1114 07:41:35.309890 25892 net.cpp:86] Creating Layer layer_256_1_bn2
I1114 07:41:35.309906 25892 net.cpp:408] layer_256_1_bn2 <- layer_256_1_conv1
I1114 07:41:35.309914 25892 net.cpp:369] layer_256_1_bn2 -> layer_256_1_conv1 (in-place)
I1114 07:41:35.310137 25892 net.cpp:124] Setting up layer_256_1_bn2
I1114 07:41:35.310154 25892 net.cpp:131] Top shape: 32 256 14 14 (1605632)
I1114 07:41:35.310159 25892 net.cpp:139] Memory required for data: 995491968
I1114 07:41:35.310168 25892 layer_factory.hpp:77] Creating layer layer_256_1_scale2
I1114 07:41:35.310202 25892 net.cpp:86] Creating Layer layer_256_1_scale2
I1114 07:41:35.310222 25892 net.cpp:408] layer_256_1_scale2 <- layer_256_1_conv1
I1114 07:41:35.310230 25892 net.cpp:369] layer_256_1_scale2 -> layer_256_1_conv1 (in-place)
I1114 07:41:35.310284 25892 layer_factory.hpp:77] Creating layer layer_256_1_scale2
I1114 07:41:35.310417 25892 net.cpp:124] Setting up layer_256_1_scale2
I1114 07:41:35.310433 25892 net.cpp:131] Top shape: 32 256 14 14 (1605632)
I1114 07:41:35.310438 25892 net.cpp:139] Memory required for data: 1001914496
I1114 07:41:35.310446 25892 layer_factory.hpp:77] Creating layer layer_256_1_relu2
I1114 07:41:35.310458 25892 net.cpp:86] Creating Layer layer_256_1_relu2
I1114 07:41:35.310462 25892 net.cpp:408] layer_256_1_relu2 <- layer_256_1_conv1
I1114 07:41:35.310472 25892 net.cpp:369] layer_256_1_relu2 -> layer_256_1_conv1 (in-place)
I1114 07:41:35.311126 25892 net.cpp:124] Setting up layer_256_1_relu2
I1114 07:41:35.311153 25892 net.cpp:131] Top shape: 32 256 14 14 (1605632)
I1114 07:41:35.311158 25892 net.cpp:139] Memory required for data: 1008337024
I1114 07:41:35.311166 25892 layer_factory.hpp:77] Creating layer layer_256_1_conv2
I1114 07:41:35.311180 25892 net.cpp:86] Creating Layer layer_256_1_conv2
I1114 07:41:35.311187 25892 net.cpp:408] layer_256_1_conv2 <- layer_256_1_conv1
I1114 07:41:35.311205 25892 net.cpp:382] layer_256_1_conv2 -> layer_256_1_conv2
I1114 07:41:35.339830 25892 net.cpp:124] Setting up layer_256_1_conv2
I1114 07:41:35.339867 25892 net.cpp:131] Top shape: 32 256 14 14 (1605632)
I1114 07:41:35.339874 25892 net.cpp:139] Memory required for data: 1014759552
I1114 07:41:35.339884 25892 layer_factory.hpp:77] Creating layer layer_256_1_conv_expand
I1114 07:41:35.339905 25892 net.cpp:86] Creating Layer layer_256_1_conv_expand
I1114 07:41:35.339921 25892 net.cpp:408] layer_256_1_conv_expand <- layer_256_1_bn1_layer_256_1_relu1_0_split_1
I1114 07:41:35.339932 25892 net.cpp:382] layer_256_1_conv_expand -> layer_256_1_conv_expand
I1114 07:41:35.346431 25892 net.cpp:124] Setting up layer_256_1_conv_expand
I1114 07:41:35.346472 25892 net.cpp:131] Top shape: 32 256 14 14 (1605632)
I1114 07:41:35.346478 25892 net.cpp:139] Memory required for data: 1021182080
I1114 07:41:35.346542 25892 layer_factory.hpp:77] Creating layer layer_256_1_sum
I1114 07:41:35.346554 25892 net.cpp:86] Creating Layer layer_256_1_sum
I1114 07:41:35.346560 25892 net.cpp:408] layer_256_1_sum <- layer_256_1_conv2
I1114 07:41:35.346567 25892 net.cpp:408] layer_256_1_sum <- layer_256_1_conv_expand
I1114 07:41:35.346582 25892 net.cpp:382] layer_256_1_sum -> layer_256_1_sum
I1114 07:41:35.346635 25892 net.cpp:124] Setting up layer_256_1_sum
I1114 07:41:35.346652 25892 net.cpp:131] Top shape: 32 256 14 14 (1605632)
I1114 07:41:35.346657 25892 net.cpp:139] Memory required for data: 1027604608
I1114 07:41:35.346662 25892 layer_factory.hpp:77] Creating layer layer_512_1_bn1
I1114 07:41:35.346674 25892 net.cpp:86] Creating Layer layer_512_1_bn1
I1114 07:41:35.346685 25892 net.cpp:408] layer_512_1_bn1 <- layer_256_1_sum
I1114 07:41:35.346691 25892 net.cpp:382] layer_512_1_bn1 -> layer_512_1_bn1
I1114 07:41:35.346936 25892 net.cpp:124] Setting up layer_512_1_bn1
I1114 07:41:35.346954 25892 net.cpp:131] Top shape: 32 256 14 14 (1605632)
I1114 07:41:35.346959 25892 net.cpp:139] Memory required for data: 1034027136
I1114 07:41:35.346971 25892 layer_factory.hpp:77] Creating layer layer_512_1_scale1
I1114 07:41:35.346992 25892 net.cpp:86] Creating Layer layer_512_1_scale1
I1114 07:41:35.346997 25892 net.cpp:408] layer_512_1_scale1 <- layer_512_1_bn1
I1114 07:41:35.347003 25892 net.cpp:369] layer_512_1_scale1 -> layer_512_1_bn1 (in-place)
I1114 07:41:35.347069 25892 layer_factory.hpp:77] Creating layer layer_512_1_scale1
I1114 07:41:35.347220 25892 net.cpp:124] Setting up layer_512_1_scale1
I1114 07:41:35.347236 25892 net.cpp:131] Top shape: 32 256 14 14 (1605632)
I1114 07:41:35.347241 25892 net.cpp:139] Memory required for data: 1040449664
I1114 07:41:35.347249 25892 layer_factory.hpp:77] Creating layer layer_512_1_relu1
I1114 07:41:35.347263 25892 net.cpp:86] Creating Layer layer_512_1_relu1
I1114 07:41:35.347268 25892 net.cpp:408] layer_512_1_relu1 <- layer_512_1_bn1
I1114 07:41:35.347277 25892 net.cpp:369] layer_512_1_relu1 -> layer_512_1_bn1 (in-place)
I1114 07:41:35.347980 25892 net.cpp:124] Setting up layer_512_1_relu1
I1114 07:41:35.348006 25892 net.cpp:131] Top shape: 32 256 14 14 (1605632)
I1114 07:41:35.348016 25892 net.cpp:139] Memory required for data: 1046872192
I1114 07:41:35.348019 25892 layer_factory.hpp:77] Creating layer layer_512_1_bn1_layer_512_1_relu1_0_split
I1114 07:41:35.348037 25892 net.cpp:86] Creating Layer layer_512_1_bn1_layer_512_1_relu1_0_split
I1114 07:41:35.348042 25892 net.cpp:408] layer_512_1_bn1_layer_512_1_relu1_0_split <- layer_512_1_bn1
I1114 07:41:35.348048 25892 net.cpp:382] layer_512_1_bn1_layer_512_1_relu1_0_split -> layer_512_1_bn1_layer_512_1_relu1_0_split_0
I1114 07:41:35.348059 25892 net.cpp:382] layer_512_1_bn1_layer_512_1_relu1_0_split -> layer_512_1_bn1_layer_512_1_relu1_0_split_1
I1114 07:41:35.348124 25892 net.cpp:124] Setting up layer_512_1_bn1_layer_512_1_relu1_0_split
I1114 07:41:35.348140 25892 net.cpp:131] Top shape: 32 256 14 14 (1605632)
I1114 07:41:35.348145 25892 net.cpp:131] Top shape: 32 256 14 14 (1605632)
I1114 07:41:35.348150 25892 net.cpp:139] Memory required for data: 1059717248
I1114 07:41:35.348155 25892 layer_factory.hpp:77] Creating layer layer_512_1_conv1
I1114 07:41:35.348179 25892 net.cpp:86] Creating Layer layer_512_1_conv1
I1114 07:41:35.348198 25892 net.cpp:408] layer_512_1_conv1 <- layer_512_1_bn1_layer_512_1_relu1_0_split_0
I1114 07:41:35.348207 25892 net.cpp:382] layer_512_1_conv1 -> layer_512_1_conv1
I1114 07:41:35.369287 25892 net.cpp:124] Setting up layer_512_1_conv1
I1114 07:41:35.369338 25892 net.cpp:131] Top shape: 32 512 7 7 (802816)
I1114 07:41:35.369343 25892 net.cpp:139] Memory required for data: 1062928512
I1114 07:41:35.369355 25892 layer_factory.hpp:77] Creating layer layer_512_1_bn2
I1114 07:41:35.369369 25892 net.cpp:86] Creating Layer layer_512_1_bn2
I1114 07:41:35.369387 25892 net.cpp:408] layer_512_1_bn2 <- layer_512_1_conv1
I1114 07:41:35.369400 25892 net.cpp:369] layer_512_1_bn2 -> layer_512_1_conv1 (in-place)
I1114 07:41:35.369722 25892 net.cpp:124] Setting up layer_512_1_bn2
I1114 07:41:35.369743 25892 net.cpp:131] Top shape: 32 512 7 7 (802816)
I1114 07:41:35.369750 25892 net.cpp:139] Memory required for data: 1066139776
I1114 07:41:35.369761 25892 layer_factory.hpp:77] Creating layer layer_512_1_scale2
I1114 07:41:35.369779 25892 net.cpp:86] Creating Layer layer_512_1_scale2
I1114 07:41:35.369786 25892 net.cpp:408] layer_512_1_scale2 <- layer_512_1_conv1
I1114 07:41:35.369792 25892 net.cpp:369] layer_512_1_scale2 -> layer_512_1_conv1 (in-place)
I1114 07:41:35.369844 25892 layer_factory.hpp:77] Creating layer layer_512_1_scale2
I1114 07:41:35.369990 25892 net.cpp:124] Setting up layer_512_1_scale2
I1114 07:41:35.370008 25892 net.cpp:131] Top shape: 32 512 7 7 (802816)
I1114 07:41:35.370014 25892 net.cpp:139] Memory required for data: 1069351040
I1114 07:41:35.370021 25892 layer_factory.hpp:77] Creating layer layer_512_1_relu2
I1114 07:41:35.370038 25892 net.cpp:86] Creating Layer layer_512_1_relu2
I1114 07:41:35.370043 25892 net.cpp:408] layer_512_1_relu2 <- layer_512_1_conv1
I1114 07:41:35.370052 25892 net.cpp:369] layer_512_1_relu2 -> layer_512_1_conv1 (in-place)
I1114 07:41:35.370730 25892 net.cpp:124] Setting up layer_512_1_relu2
I1114 07:41:35.370756 25892 net.cpp:131] Top shape: 32 512 7 7 (802816)
I1114 07:41:35.370762 25892 net.cpp:139] Memory required for data: 1072562304
I1114 07:41:35.370767 25892 layer_factory.hpp:77] Creating layer layer_512_1_conv2
I1114 07:41:35.370793 25892 net.cpp:86] Creating Layer layer_512_1_conv2
I1114 07:41:35.370805 25892 net.cpp:408] layer_512_1_conv2 <- layer_512_1_conv1
I1114 07:41:35.370816 25892 net.cpp:382] layer_512_1_conv2 -> layer_512_1_conv2
I1114 07:41:35.404312 25892 net.cpp:124] Setting up layer_512_1_conv2
I1114 07:41:35.404361 25892 net.cpp:131] Top shape: 32 512 7 7 (802816)
I1114 07:41:35.404366 25892 net.cpp:139] Memory required for data: 1075773568
I1114 07:41:35.404379 25892 layer_factory.hpp:77] Creating layer layer_512_1_conv_expand
I1114 07:41:35.404405 25892 net.cpp:86] Creating Layer layer_512_1_conv_expand
I1114 07:41:35.404423 25892 net.cpp:408] layer_512_1_conv_expand <- layer_512_1_bn1_layer_512_1_relu1_0_split_1
I1114 07:41:35.404446 25892 net.cpp:382] layer_512_1_conv_expand -> layer_512_1_conv_expand
I1114 07:41:35.414814 25892 net.cpp:124] Setting up layer_512_1_conv_expand
I1114 07:41:35.414857 25892 net.cpp:131] Top shape: 32 512 7 7 (802816)
I1114 07:41:35.414862 25892 net.cpp:139] Memory required for data: 1078984832
I1114 07:41:35.414872 25892 layer_factory.hpp:77] Creating layer layer_512_1_sum
I1114 07:41:35.414886 25892 net.cpp:86] Creating Layer layer_512_1_sum
I1114 07:41:35.414903 25892 net.cpp:408] layer_512_1_sum <- layer_512_1_conv2
I1114 07:41:35.414911 25892 net.cpp:408] layer_512_1_sum <- layer_512_1_conv_expand
I1114 07:41:35.414917 25892 net.cpp:382] layer_512_1_sum -> layer_512_1_sum
I1114 07:41:35.414960 25892 net.cpp:124] Setting up layer_512_1_sum
I1114 07:41:35.414978 25892 net.cpp:131] Top shape: 32 512 7 7 (802816)
I1114 07:41:35.414981 25892 net.cpp:139] Memory required for data: 1082196096
I1114 07:41:35.414985 25892 layer_factory.hpp:77] Creating layer last_bn
I1114 07:41:35.414995 25892 net.cpp:86] Creating Layer last_bn
I1114 07:41:35.415010 25892 net.cpp:408] last_bn <- layer_512_1_sum
I1114 07:41:35.415017 25892 net.cpp:369] last_bn -> layer_512_1_sum (in-place)
I1114 07:41:35.415284 25892 net.cpp:124] Setting up last_bn
I1114 07:41:35.415302 25892 net.cpp:131] Top shape: 32 512 7 7 (802816)
I1114 07:41:35.415307 25892 net.cpp:139] Memory required for data: 1085407360
I1114 07:41:35.415315 25892 layer_factory.hpp:77] Creating layer last_scale
I1114 07:41:35.415331 25892 net.cpp:86] Creating Layer last_scale
I1114 07:41:35.415341 25892 net.cpp:408] last_scale <- layer_512_1_sum
I1114 07:41:35.415349 25892 net.cpp:369] last_scale -> layer_512_1_sum (in-place)
I1114 07:41:35.415412 25892 layer_factory.hpp:77] Creating layer last_scale
I1114 07:41:35.415575 25892 net.cpp:124] Setting up last_scale
I1114 07:41:35.415616 25892 net.cpp:131] Top shape: 32 512 7 7 (802816)
I1114 07:41:35.415621 25892 net.cpp:139] Memory required for data: 1088618624
I1114 07:41:35.415632 25892 layer_factory.hpp:77] Creating layer last_relu
I1114 07:41:35.415648 25892 net.cpp:86] Creating Layer last_relu
I1114 07:41:35.415653 25892 net.cpp:408] last_relu <- layer_512_1_sum
I1114 07:41:35.415664 25892 net.cpp:369] last_relu -> layer_512_1_sum (in-place)
I1114 07:41:35.416370 25892 net.cpp:124] Setting up last_relu
I1114 07:41:35.416395 25892 net.cpp:131] Top shape: 32 512 7 7 (802816)
I1114 07:41:35.416399 25892 net.cpp:139] Memory required for data: 1091829888
I1114 07:41:35.416405 25892 layer_factory.hpp:77] Creating layer global_pool
I1114 07:41:35.416424 25892 net.cpp:86] Creating Layer global_pool
I1114 07:41:35.416437 25892 net.cpp:408] global_pool <- layer_512_1_sum
I1114 07:41:35.416445 25892 net.cpp:382] global_pool -> global_pool
I1114 07:41:35.417202 25892 net.cpp:124] Setting up global_pool
I1114 07:41:35.417227 25892 net.cpp:131] Top shape: 32 512 1 1 (16384)
I1114 07:41:35.417232 25892 net.cpp:139] Memory required for data: 1091895424
I1114 07:41:35.417237 25892 layer_factory.hpp:77] Creating layer score
I1114 07:41:35.417250 25892 net.cpp:86] Creating Layer score
I1114 07:41:35.417264 25892 net.cpp:408] score <- global_pool
I1114 07:41:35.417277 25892 net.cpp:382] score -> score
I1114 07:41:35.438518 25892 net.cpp:124] Setting up score
I1114 07:41:35.438580 25892 net.cpp:131] Top shape: 32 10000 (320000)
I1114 07:41:35.438585 25892 net.cpp:139] Memory required for data: 1093175424
I1114 07:41:35.438624 25892 layer_factory.hpp:77] Creating layer loss
I1114 07:41:35.438661 25892 net.cpp:86] Creating Layer loss
I1114 07:41:35.438670 25892 net.cpp:408] loss <- score
I1114 07:41:35.438678 25892 net.cpp:408] loss <- label
I1114 07:41:35.438702 25892 net.cpp:382] loss -> loss
I1114 07:41:35.438730 25892 layer_factory.hpp:77] Creating layer loss
…
I1114 07:41:35.443200 25892 solver.cpp:190] Creating test net (#0) specified by net file: train_msceleb.prototxt
I1114 07:41:35.443256 25892 net.cpp:296] The NetState phase (1) differed from the phase (0) specified by a rule in layer train_input_layer
I1114 07:41:35.443598 25892 net.cpp:53] Initializing net from parameters: 
name: "ResNet10_msceleb"
state {
  phase: TEST
}
layer {
  name: "test_input_layer"
  type: "Python"
  top: "data"
  top: "label"
  include {
    phase: TEST
  }
  python_param {
    module: "pythonLayer"
    layer: "test_input_layer"
  }
}
layer {
  name: "data_bn"
  type: "BatchNorm"
  bottom: "data"
  top: "data_bn"
  param {
    lr_mult: 0
    decay_mult: 0
  }
  param {
    lr_mult: 0
    decay_mult: 0
  }
  param {
    lr_mult: 0
    decay_mult: 0
  }
}
layer {
  name: "data_scale"
  type: "Scale"
  bottom: "data_bn"
  top: "data_bn"
  param {
    lr_mult: 1
    decay_mult: 1
  }
  param {
    lr_mult: 2
    decay_mult: 1
  }
  scale_param {
    bias_term: true
  }
}
layer {
  name: "conv1"
  type: "Convolution"
  bottom: "data_bn"
  top: "conv1"
  param {
    lr_mult: 1
    decay_mult: 1
  }
  param {
    lr_mult: 2
    decay_mult: 1
  }
  convolution_param {
    num_output: 64
    pad: 3
    kernel_size: 7
    stride: 2
    weight_filler {
      type: "msra"
      variance_norm: FAN_OUT
    }
    bias_filler {
      type: "constant"
      value: 0
    }
  }
}
layer {
  name: "conv1_bn"
  type: "BatchNorm"
  bottom: "conv1"
  top: "conv1"
  param {
    lr_mult: 0
    decay_mult: 0
  }
  param {
    lr_mult: 0
    decay_mult: 0
  }
  param {
    lr_mult: 0
    decay_mult: 0
  }
}
layer {
  name: "conv1_scale"
  type: "Scale"
  bottom: "conv1"
  top: "conv1"
  param {
    lr_mult: 1
    decay_mult: 1
  }
  param {
    lr_mult: 2
    decay_mult: 1
  }
  scale_param {
    bias_term: true
  }
}
layer {
  name: "conv1_relu"
  type: "ReLU"
  bottom: "conv1"
  top: "conv1"
}
layer {
  name: "conv1_pool"
  type: "Pooling"
  bottom: "conv1"
  top: "conv1_pool"
  pooling_param {
    kernel_size: 3
    stride: 2
  }
}
layer {
  name: "layer_64_1_conv1"
  type: "Convolution"
  bottom: "conv1_pool"
  top: "layer_64_1_conv1"
  param {
    lr_mult: 1
    decay_mult: 1
  }
  convolution_param {
    num_output: 64
    bias_term: false
    pad: 1
    kernel_size: 3
    stride: 1
    weight_filler {
      type: "msra"
    }
    bias_filler {
      type: "constant"
      value: 0
    }
  }
}
layer {
  name: "layer_64_1_bn2"
  type: "BatchNorm"
  bottom: "layer_64_1_conv1"
  top: "layer_64_1_conv1"
  param {
    lr_mult: 0
    decay_mult: 0
  }
  param {
    lr_mult: 0
    decay_mult: 0
  }
  param {
    lr_mult: 0
    decay_mult: 0
  }
}
layer {
  name: "layer_64_1_scale2"
  type: "Scale"
  bottom: "layer_64_1_conv1"
  top: "layer_64_1_conv1"
  param {
    lr_mult: 1
    decay_mult: 1
  }
  param {
    lr_mult: 2
    decay_mult: 1
  }
  scale_param {
    bias_term: true
  }
}
layer {
  name: "layer_64_1_relu2"
  type: "ReLU"
  bottom: "layer_64_1_conv1"
  top: "layer_64_1_conv1"
}
layer {
  name: "layer_64_1_conv2"
  type: "Convolution"
  bottom: "layer_64_1_conv1"
  top: "layer_64_1_conv2"
  param {
    lr_mult: 1
    decay_mult: 1
  }
  convolution_param {
    num_output: 64
    bias_term: false
    pad: 1
    kernel_size: 3
    stride: 1
    weight_filler {
      type: "msra"
    }
    bias_filler {
      type: "constant"
      value: 0
    }
  }
}
layer {
  name: "layer_64_1_sum"
  type: "Eltwise"
  bottom: "layer_64_1_conv2"
  bottom: "conv1_pool"
  top: "layer_64_1_sum"
}
layer {
  name: "layer_128_1_bn1"
  type: "BatchNorm"
  bottom: "layer_64_1_sum"
  top: "layer_128_1_bn1"
  param {
    lr_mult: 0
    decay_mult: 0
  }
  param {
    lr_mult: 0
    decay_mult: 0
  }
  param {
    lr_mult: 0
    decay_mult: 0
  }
}
layer {
  name: "layer_128_1_scale1"
  type: "Scale"
  bottom: "layer_128_1_bn1"
  top: "layer_128_1_bn1"
  param {
    lr_mult: 1
    decay_mult: 1
  }
  param {
    lr_mult: 2
    decay_mult: 1
  }
  scale_param {
    bias_term: true
  }
}
layer {
  name: "layer_128_1_relu1"
  type: "ReLU"
  bottom: "layer_128_1_bn1"
  top: "layer_128_1_bn1"
}
layer {
  name: "layer_128_1_conv1"
  type: "Convolution"
  bottom: "layer_128_1_bn1"
  top: "layer_128_1_conv1"
  param {
    lr_mult: 1
    decay_mult: 1
  }
  convolution_param {
    num_output: 128
    bias_term: false
    pad: 1
    kernel_size: 3
    stride: 2
    weight_filler {
      type: "msra"
    }
    bias_filler {
      type: "constant"
      value: 0
    }
  }
}
layer {
  name: "layer_128_1_bn2"
  type: "BatchNorm"
  bottom: "layer_128_1_conv1"
  top: "layer_128_1_conv1"
  param {
    lr_mult: 0
    decay_mult: 0
  }
  param {
    lr_mult: 0
    decay_mult: 0
  }
  param {
    lr_mult: 0
    decay_mult: 0
  }
}
layer {
  name: "layer_128_1_scale2"
  type: "Scale"
  bottom: "layer_128_1_conv1"
  top: "layer_128_1_conv1"
  param {
    lr_mult: 1
    decay_mult: 1
  }
  param {
    lr_mult: 2
    decay_mult: 1
  }
  scale_param {
    bias_term: true
  }
}
layer {
  name: "layer_128_1_relu2"
  type: "ReLU"
  bottom: "layer_128_1_conv1"
  top: "layer_128_1_conv1"
}
layer {
  name: "layer_128_1_conv2"
  type: "Convolution"
  bottom: "layer_128_1_conv1"
  top: "layer_128_1_conv2"
  param {
    lr_mult: 1
    decay_mult: 1
  }
  convolution_param {
    num_output: 128
    bias_term: false
    pad: 1
    kernel_size: 3
    stride: 1
    weight_filler {
      type: "msra"
    }
    bias_filler {
      type: "constant"
      value: 0
    }
  }
}
layer {
  name: "layer_128_1_conv_expand"
  type: "Convolution"
  bottom: "layer_128_1_bn1"
  top: "layer_128_1_conv_expand"
  param {
    lr_mult: 1
    decay_mult: 1
  }
  convolution_param {
    num_output: 128
    bias_term: false
    pad: 0
    kernel_size: 1
    stride: 2
    weight_filler {
      type: "msra"
    }
    bias_filler {
      type: "constant"
      value: 0
    }
  }
}
layer {
  name: "layer_128_1_sum"
  type: "Eltwise"
  bottom: "layer_128_1_conv2"
  bottom: "layer_128_1_conv_expand"
  top: "layer_128_1_sum"
}
layer {
  name: "layer_256_1_bn1"
  type: "BatchNorm"
  bottom: "layer_128_1_sum"
  top: "layer_256_1_bn1"
  param {
    lr_mult: 0
    decay_mult: 0
  }
  param {
    lr_mult: 0
    decay_mult: 0
  }
  param {
    lr_mult: 0
    decay_mult: 0
  }
}
layer {
  name: "layer_256_1_scale1"
  type: "Scale"
  bottom: "layer_256_1_bn1"
  top: "layer_256_1_bn1"
  param {
    lr_mult: 1
    decay_mult: 1
  }
  param {
    lr_mult: 2
    decay_mult: 1
  }
  scale_param {
    bias_term: true
  }
}
layer {
  name: "layer_256_1_relu1"
  type: "ReLU"
  bottom: "layer_256_1_bn1"
  top: "layer_256_1_bn1"
}
layer {
  name: "layer_256_1_conv1"
  type: "Convolution"
  bottom: "layer_256_1_bn1"
  top: "layer_256_1_conv1"
  param {
    lr_mult: 1
    decay_mult: 1
  }
  convolution_param {
    num_output: 256
    bias_term: false
    pad: 1
    kernel_size: 3
    stride: 2
    weight_filler {
      type: "msra"
    }
    bias_filler {
      type: "constant"
      value: 0
    }
  }
}
layer {
  name: "layer_256_1_bn2"
  type: "BatchNorm"
  bottom: "layer_256_1_conv1"
  top: "layer_256_1_conv1"
  param {
    lr_mult: 0
    decay_mult: 0
  }
  param {
    lr_mult: 0
    decay_mult: 0
  }
  param {
    lr_mult: 0
    decay_mult: 0
  }
}
layer {
  name: "layer_256_1_scale2"
  type: "Scale"
  bottom: "layer_256_1_conv1"
  top: "layer_256_1_conv1"
  param {
    lr_mult: 1
    decay_mult: 1
  }
  param {
    lr_mult: 2
    decay_mult: 1
  }
  scale_param {
    bias_term: true
  }
}
layer {
  name: "layer_256_1_relu2"
  type: "ReLU"
  bottom: "layer_256_1_conv1"
  top: "layer_256_1_conv1"
}
layer {
  name: "layer_256_1_conv2"
  type: "Convolution"
  bottom: "layer_256_1_conv1"
  top: "layer_256_1_conv2"
  param {
    lr_mult: 1
    decay_mult: 1
  }
  convolution_param {
    num_output: 256
    bias_term: false
    pad: 1
    kernel_size: 3
    stride: 1
    weight_filler {
      type: "msra"
    }
    bias_filler {
      type: "constant"
      value: 0
    }
  }
}
layer {
  name: "layer_256_1_conv_expand"
  type: "Convolution"
  bottom: "layer_256_1_bn1"
  top: "layer_256_1_conv_expand"
  param {
    lr_mult: 1
    decay_mult: 1
  }
  convolution_param {
    num_output: 256
    bias_term: false
    pad: 0
    kernel_size: 1
    stride: 2
    weight_filler {
      type: "msra"
    }
    bias_filler {
      type: "constant"
      value: 0
    }
  }
}
layer {
  name: "layer_256_1_sum"
  type: "Eltwise"
  bottom: "layer_256_1_conv2"
  bottom: "layer_256_1_conv_expand"
  top: "layer_256_1_sum"
}
layer {
  name: "layer_512_1_bn1"
  type: "BatchNorm"
  bottom: "layer_256_1_sum"
  top: "layer_512_1_bn1"
  param {
    lr_mult: 0
    decay_mult: 0
  }
  param {
    lr_mult: 0
    decay_mult: 0
  }
  param {
    lr_mult: 0
    decay_mult: 0
  }
}
layer {
  name: "layer_512_1_scale1"
  type: "Scale"
  bottom: "layer_512_1_bn1"
  top: "layer_512_1_bn1"
  param {
    lr_mult: 1
    decay_mult: 1
  }
  param {
    lr_mult: 2
    decay_mult: 1
  }
  scale_param {
    bias_term: true
  }
}
layer {
  name: "layer_512_1_relu1"
  type: "ReLU"
  bottom: "layer_512_1_bn1"
  top: "layer_512_1_bn1"
}
layer {
  name: "layer_512_1_conv1"
  type: "Convolution"
  bottom: "layer_512_1_bn1"
  top: "layer_512_1_conv1"
  param {
    lr_mult: 1
    decay_mult: 1
  }
  convolution_param {
    num_output: 512
    bias_term: false
    pad: 1
    kernel_size: 3
    stride: 2
    weight_filler {
      type: "msra"
    }
    bias_filler {
      type: "constant"
      value: 0
    }
  }
}
layer {
  name: "layer_512_1_bn2"
  type: "BatchNorm"
  bottom: "layer_512_1_conv1"
  top: "layer_512_1_conv1"
  param {
    lr_mult: 0
    decay_mult: 0
  }
  param {
    lr_mult: 0
    decay_mult: 0
  }
  param {
    lr_mult: 0
    decay_mult: 0
  }
}
layer {
  name: "layer_512_1_scale2"
  type: "Scale"
  bottom: "layer_512_1_conv1"
  top: "layer_512_1_conv1"
  param {
    lr_mult: 1
    decay_mult: 1
  }
  param {
    lr_mult: 2
    decay_mult: 1
  }
  scale_param {
    bias_term: true
  }
}
layer {
  name: "layer_512_1_relu2"
  type: "ReLU"
  bottom: "layer_512_1_conv1"
  top: "layer_512_1_conv1"
}
layer {
  name: "layer_512_1_conv2"
  type: "Convolution"
  bottom: "layer_512_1_conv1"
  top: "layer_512_1_conv2"
  param {
    lr_mult: 1
    decay_mult: 1
  }
  convolution_param {
    num_output: 512
    bias_term: false
    pad: 1
    kernel_size: 3
    stride: 1
    weight_filler {
      type: "msra"
    }
    bias_filler {
      type: "constant"
      value: 0
    }
  }
}
layer {
  name: "layer_512_1_conv_expand"
  type: "Convolution"
  bottom: "layer_512_1_bn1"
  top: "layer_512_1_conv_expand"
  param {
    lr_mult: 1
    decay_mult: 1
  }
  convolution_param {
    num_output: 512
    bias_term: false
    pad: 0
    kernel_size: 1
    stride: 2
    weight_filler {
      type: "msra"
    }
    bias_filler {
      type: "constant"
      value: 0
    }
  }
}
layer {
  name: "layer_512_1_sum"
  type: "Eltwise"
  bottom: "layer_512_1_conv2"
  bottom: "layer_512_1_conv_expand"
  top: "layer_512_1_sum"
}
layer {
  name: "last_bn"
  type: "BatchNorm"
  bottom: "layer_512_1_sum"
  top: "layer_512_1_sum"
  param {
    lr_mult: 0
    decay_mult: 0
  }
  param {
    lr_mult: 0
    decay_mult: 0
  }
  param {
    lr_mult: 0
    decay_mult: 0
  }
}
layer {
  name: "last_scale"
  type: "Scale"
  bottom: "layer_512_1_sum"
  top: "layer_512_1_sum"
  param {
    lr_mult: 1
    decay_mult: 1
  }
  param {
    lr_mult: 2
    decay_mult: 1
  }
  scale_param {
    bias_term: true
  }
}
layer {
  name: "last_relu"
  type: "ReLU"
  bottom: "layer_512_1_sum"
  top: "layer_512_1_sum"
}
layer {
  name: "global_pool"
  type: "Pooling"
  bottom: "layer_512_1_sum"
  top: "global_pool"
  pooling_param {
    pool: AVE
    global_pooling: true
  }
}
layer {
  name: "score"
  type: "InnerProduct"
  bottom: "global_pool"
  top: "score"
  param {
    lr_mult: 10
    decay_mult: 1
  }
  param {
    lr_mult: 10
    decay_mult: 1
  }
  inner_product_param {
    num_output: 10000
  }
}
layer {
  name: "loss"
  type: "SoftmaxWithLoss"
  bottom: "score"
  bottom: "label"
  top: "loss"
}
layer {
  name: "accuracy"
  type: "Accuracy"
  bottom: "score"
  bottom: "label"
  top: "accuracy"
  include {
    phase: TEST
  }
}
I1114 07:41:35.443819 25892 layer_factory.hpp:77] Creating layer test_input_layer
I1114 07:41:35.443899 25892 net.cpp:86] Creating Layer test_input_layer
I1114 07:41:35.443907 25892 net.cpp:382] test_input_layer -> data
I1114 07:41:35.443915 25892 net.cpp:382] test_input_layer -> label
I1114 07:42:39.058694 25892 net.cpp:124] Setting up test_input_layer
I1114 07:42:39.058791 25892 net.cpp:131] Top shape: 10 3 224 224 (1505280)
I1114 07:42:39.058799 25892 net.cpp:131] Top shape: 10 1 (10)
I1114 07:42:39.058804 25892 net.cpp:139] Memory required for data: 6021160
I1114 07:42:39.058815 25892 layer_factory.hpp:77] Creating layer label_test_input_layer_1_split
I1114 07:42:39.058835 25892 net.cpp:86] Creating Layer label_test_input_layer_1_split
I1114 07:42:39.058849 25892 net.cpp:408] label_test_input_layer_1_split <- label
I1114 07:42:39.058864 25892 net.cpp:382] label_test_input_layer_1_split -> label_test_input_layer_1_split_0
I1114 07:42:39.058878 25892 net.cpp:382] label_test_input_layer_1_split -> label_test_input_layer_1_split_1
I1114 07:42:39.058948 25892 net.cpp:124] Setting up label_test_input_layer_1_split
I1114 07:42:39.058964 25892 net.cpp:131] Top shape: 10 1 (10)
I1114 07:42:39.058971 25892 net.cpp:131] Top shape: 10 1 (10)
I1114 07:42:39.058974 25892 net.cpp:139] Memory required for data: 6021240
I1114 07:42:39.058979 25892 layer_factory.hpp:77] Creating layer data_bn
I1114 07:42:39.058991 25892 net.cpp:86] Creating Layer data_bn
I1114 07:42:39.059007 25892 net.cpp:408] data_bn <- data
I1114 07:42:39.059016 25892 net.cpp:382] data_bn -> data_bn
I1114 07:42:39.059415 25892 net.cpp:124] Setting up data_bn
I1114 07:42:39.059438 25892 net.cpp:131] Top shape: 10 3 224 224 (1505280)
I1114 07:42:39.059443 25892 net.cpp:139] Memory required for data: 12042360
I1114 07:42:39.059463 25892 layer_factory.hpp:77] Creating layer data_scale
I1114 07:42:39.059481 25892 net.cpp:86] Creating Layer data_scale
I1114 07:42:39.059499 25892 net.cpp:408] data_scale <- data_bn
I1114 07:42:39.059510 25892 net.cpp:369] data_scale -> data_bn (in-place)
I1114 07:42:39.059587 25892 layer_factory.hpp:77] Creating layer data_scale
I1114 07:42:39.059890 25892 net.cpp:124] Setting up data_scale
I1114 07:42:39.059909 25892 net.cpp:131] Top shape: 10 3 224 224 (1505280)
I1114 07:42:39.059916 25892 net.cpp:139] Memory required for data: 18063480
I1114 07:42:39.059926 25892 layer_factory.hpp:77] Creating layer conv1
I1114 07:42:39.059952 25892 net.cpp:86] Creating Layer conv1
I1114 07:42:39.059964 25892 net.cpp:408] conv1 <- data_bn
I1114 07:42:39.059974 25892 net.cpp:382] conv1 -> conv1
I1114 07:42:39.068068 25892 net.cpp:124] Setting up conv1
I1114 07:42:39.068101 25892 net.cpp:131] Top shape: 10 64 112 112 (8028160)
I1114 07:42:39.068107 25892 net.cpp:139] Memory required for data: 50176120
I1114 07:42:39.068117 25892 layer_factory.hpp:77] Creating layer conv1_bn
I1114 07:42:39.068126 25892 net.cpp:86] Creating Layer conv1_bn
I1114 07:42:39.068141 25892 net.cpp:408] conv1_bn <- conv1
I1114 07:42:39.068150 25892 net.cpp:369] conv1_bn -> conv1 (in-place)
I1114 07:42:39.068439 25892 net.cpp:124] Setting up conv1_bn
I1114 07:42:39.068459 25892 net.cpp:131] Top shape: 10 64 112 112 (8028160)
I1114 07:42:39.068464 25892 net.cpp:139] Memory required for data: 82288760
I1114 07:42:39.068480 25892 layer_factory.hpp:77] Creating layer conv1_scale
I1114 07:42:39.068502 25892 net.cpp:86] Creating Layer conv1_scale
I1114 07:42:39.068516 25892 net.cpp:408] conv1_scale <- conv1
I1114 07:42:39.068524 25892 net.cpp:369] conv1_scale -> conv1 (in-place)
I1114 07:42:39.068584 25892 layer_factory.hpp:77] Creating layer conv1_scale
I1114 07:42:39.068778 25892 net.cpp:124] Setting up conv1_scale
I1114 07:42:39.068796 25892 net.cpp:131] Top shape: 10 64 112 112 (8028160)
I1114 07:42:39.068801 25892 net.cpp:139] Memory required for data: 114401400
I1114 07:42:39.068809 25892 layer_factory.hpp:77] Creating layer conv1_relu
I1114 07:42:39.068817 25892 net.cpp:86] Creating Layer conv1_relu
I1114 07:42:39.068821 25892 net.cpp:408] conv1_relu <- conv1
I1114 07:42:39.068827 25892 net.cpp:369] conv1_relu -> conv1 (in-place)
I1114 07:42:39.069705 25892 net.cpp:124] Setting up conv1_relu
I1114 07:42:39.069733 25892 net.cpp:131] Top shape: 10 64 112 112 (8028160)
I1114 07:42:39.069738 25892 net.cpp:139] Memory required for data: 146514040
I1114 07:42:39.069743 25892 layer_factory.hpp:77] Creating layer conv1_pool
I1114 07:42:39.069766 25892 net.cpp:86] Creating Layer conv1_pool
I1114 07:42:39.069800 25892 net.cpp:408] conv1_pool <- conv1
I1114 07:42:39.069818 25892 net.cpp:382] conv1_pool -> conv1_pool
I1114 07:42:39.069892 25892 net.cpp:124] Setting up conv1_pool
I1114 07:42:39.069909 25892 net.cpp:131] Top shape: 10 64 56 56 (2007040)
I1114 07:42:39.069916 25892 net.cpp:139] Memory required for data: 154542200
I1114 07:42:39.069919 25892 layer_factory.hpp:77] Creating layer conv1_pool_conv1_pool_0_split
I1114 07:42:39.069928 25892 net.cpp:86] Creating Layer conv1_pool_conv1_pool_0_split
I1114 07:42:39.069939 25892 net.cpp:408] conv1_pool_conv1_pool_0_split <- conv1_pool
I1114 07:42:39.069948 25892 net.cpp:382] conv1_pool_conv1_pool_0_split -> conv1_pool_conv1_pool_0_split_0
I1114 07:42:39.069957 25892 net.cpp:382] conv1_pool_conv1_pool_0_split -> conv1_pool_conv1_pool_0_split_1
I1114 07:42:39.070021 25892 net.cpp:124] Setting up conv1_pool_conv1_pool_0_split
I1114 07:42:39.070042 25892 net.cpp:131] Top shape: 10 64 56 56 (2007040)
I1114 07:42:39.070050 25892 net.cpp:131] Top shape: 10 64 56 56 (2007040)
I1114 07:42:39.070053 25892 net.cpp:139] Memory required for data: 170598520
I1114 07:42:39.070057 25892 layer_factory.hpp:77] Creating layer layer_64_1_conv1
I1114 07:42:39.070070 25892 net.cpp:86] Creating Layer layer_64_1_conv1
I1114 07:42:39.070085 25892 net.cpp:408] layer_64_1_conv1 <- conv1_pool_conv1_pool_0_split_0
I1114 07:42:39.070094 25892 net.cpp:382] layer_64_1_conv1 -> layer_64_1_conv1
I1114 07:42:39.076977 25892 net.cpp:124] Setting up layer_64_1_conv1
I1114 07:42:39.077009 25892 net.cpp:131] Top shape: 10 64 56 56 (2007040)
I1114 07:42:39.077015 25892 net.cpp:139] Memory required for data: 178626680
I1114 07:42:39.077023 25892 layer_factory.hpp:77] Creating layer layer_64_1_bn2
I1114 07:42:39.077033 25892 net.cpp:86] Creating Layer layer_64_1_bn2
I1114 07:42:39.077047 25892 net.cpp:408] layer_64_1_bn2 <- layer_64_1_conv1
I1114 07:42:39.077059 25892 net.cpp:369] layer_64_1_bn2 -> layer_64_1_conv1 (in-place)
I1114 07:42:39.077340 25892 net.cpp:124] Setting up layer_64_1_bn2
I1114 07:42:39.077360 25892 net.cpp:131] Top shape: 10 64 56 56 (2007040)
I1114 07:42:39.077365 25892 net.cpp:139] Memory required for data: 186654840
I1114 07:42:39.077376 25892 layer_factory.hpp:77] Creating layer layer_64_1_scale2
I1114 07:42:39.077394 25892 net.cpp:86] Creating Layer layer_64_1_scale2
I1114 07:42:39.077399 25892 net.cpp:408] layer_64_1_scale2 <- layer_64_1_conv1
I1114 07:42:39.077406 25892 net.cpp:369] layer_64_1_scale2 -> layer_64_1_conv1 (in-place)
I1114 07:42:39.077466 25892 layer_factory.hpp:77] Creating layer layer_64_1_scale2
I1114 07:42:39.077648 25892 net.cpp:124] Setting up layer_64_1_scale2
I1114 07:42:39.077667 25892 net.cpp:131] Top shape: 10 64 56 56 (2007040)
I1114 07:42:39.077672 25892 net.cpp:139] Memory required for data: 194683000
I1114 07:42:39.077685 25892 layer_factory.hpp:77] Creating layer layer_64_1_relu2
I1114 07:42:39.077702 25892 net.cpp:86] Creating Layer layer_64_1_relu2
I1114 07:42:39.077706 25892 net.cpp:408] layer_64_1_relu2 <- layer_64_1_conv1
I1114 07:42:39.077713 25892 net.cpp:369] layer_64_1_relu2 -> layer_64_1_conv1 (in-place)
I1114 07:42:39.078554 25892 net.cpp:124] Setting up layer_64_1_relu2
I1114 07:42:39.078577 25892 net.cpp:131] Top shape: 10 64 56 56 (2007040)
I1114 07:42:39.078583 25892 net.cpp:139] Memory required for data: 202711160
I1114 07:42:39.078588 25892 layer_factory.hpp:77] Creating layer layer_64_1_conv2
I1114 07:42:39.078613 25892 net.cpp:86] Creating Layer layer_64_1_conv2
I1114 07:42:39.078619 25892 net.cpp:408] layer_64_1_conv2 <- layer_64_1_conv1
I1114 07:42:39.078629 25892 net.cpp:382] layer_64_1_conv2 -> layer_64_1_conv2
I1114 07:42:39.083417 25892 net.cpp:124] Setting up layer_64_1_conv2
I1114 07:42:39.083449 25892 net.cpp:131] Top shape: 10 64 56 56 (2007040)
I1114 07:42:39.083456 25892 net.cpp:139] Memory required for data: 210739320
I1114 07:42:39.083463 25892 layer_factory.hpp:77] Creating layer layer_64_1_sum
I1114 07:42:39.083472 25892 net.cpp:86] Creating Layer layer_64_1_sum
I1114 07:42:39.083515 25892 net.cpp:408] layer_64_1_sum <- layer_64_1_conv2
I1114 07:42:39.083524 25892 net.cpp:408] layer_64_1_sum <- conv1_pool_conv1_pool_0_split_1
I1114 07:42:39.083541 25892 net.cpp:382] layer_64_1_sum -> layer_64_1_sum
I1114 07:42:39.083587 25892 net.cpp:124] Setting up layer_64_1_sum
I1114 07:42:39.083609 25892 net.cpp:131] Top shape: 10 64 56 56 (2007040)
I1114 07:42:39.083614 25892 net.cpp:139] Memory required for data: 218767480
I1114 07:42:39.083618 25892 layer_factory.hpp:77] Creating layer layer_128_1_bn1
I1114 07:42:39.083632 25892 net.cpp:86] Creating Layer layer_128_1_bn1
I1114 07:42:39.083645 25892 net.cpp:408] layer_128_1_bn1 <- layer_64_1_sum
I1114 07:42:39.083653 25892 net.cpp:382] layer_128_1_bn1 -> layer_128_1_bn1
I1114 07:42:39.083928 25892 net.cpp:124] Setting up layer_128_1_bn1
I1114 07:42:39.083946 25892 net.cpp:131] Top shape: 10 64 56 56 (2007040)
I1114 07:42:39.083952 25892 net.cpp:139] Memory required for data: 226795640
I1114 07:42:39.083961 25892 layer_factory.hpp:77] Creating layer layer_128_1_scale1
I1114 07:42:39.083978 25892 net.cpp:86] Creating Layer layer_128_1_scale1
I1114 07:42:39.083983 25892 net.cpp:408] layer_128_1_scale1 <- layer_128_1_bn1
I1114 07:42:39.083992 25892 net.cpp:369] layer_128_1_scale1 -> layer_128_1_bn1 (in-place)
I1114 07:42:39.084053 25892 layer_factory.hpp:77] Creating layer layer_128_1_scale1
I1114 07:42:39.084228 25892 net.cpp:124] Setting up layer_128_1_scale1
I1114 07:42:39.084246 25892 net.cpp:131] Top shape: 10 64 56 56 (2007040)
I1114 07:42:39.084252 25892 net.cpp:139] Memory required for data: 234823800
I1114 07:42:39.084260 25892 layer_factory.hpp:77] Creating layer layer_128_1_relu1
I1114 07:42:39.084275 25892 net.cpp:86] Creating Layer layer_128_1_relu1
I1114 07:42:39.084281 25892 net.cpp:408] layer_128_1_relu1 <- layer_128_1_bn1
I1114 07:42:39.084288 25892 net.cpp:369] layer_128_1_relu1 -> layer_128_1_bn1 (in-place)
I1114 07:42:39.086838 25892 net.cpp:124] Setting up layer_128_1_relu1
I1114 07:42:39.086868 25892 net.cpp:131] Top shape: 10 64 56 56 (2007040)
I1114 07:42:39.086874 25892 net.cpp:139] Memory required for data: 242851960
I1114 07:42:39.086887 25892 layer_factory.hpp:77] Creating layer layer_128_1_bn1_layer_128_1_relu1_0_split
I1114 07:42:39.086899 25892 net.cpp:86] Creating Layer layer_128_1_bn1_layer_128_1_relu1_0_split
I1114 07:42:39.086904 25892 net.cpp:408] layer_128_1_bn1_layer_128_1_relu1_0_split <- layer_128_1_bn1
I1114 07:42:39.086912 25892 net.cpp:382] layer_128_1_bn1_layer_128_1_relu1_0_split -> layer_128_1_bn1_layer_128_1_relu1_0_split_0
I1114 07:42:39.086930 25892 net.cpp:382] layer_128_1_bn1_layer_128_1_relu1_0_split -> layer_128_1_bn1_layer_128_1_relu1_0_split_1
I1114 07:42:39.087000 25892 net.cpp:124] Setting up layer_128_1_bn1_layer_128_1_relu1_0_split
I1114 07:42:39.087018 25892 net.cpp:131] Top shape: 10 64 56 56 (2007040)
I1114 07:42:39.087023 25892 net.cpp:131] Top shape: 10 64 56 56 (2007040)
I1114 07:42:39.087028 25892 net.cpp:139] Memory required for data: 258908280
I1114 07:42:39.087031 25892 layer_factory.hpp:77] Creating layer layer_128_1_conv1
I1114 07:42:39.087052 25892 net.cpp:86] Creating Layer layer_128_1_conv1
I1114 07:42:39.087059 25892 net.cpp:408] layer_128_1_conv1 <- layer_128_1_bn1_layer_128_1_relu1_0_split_0
I1114 07:42:39.087072 25892 net.cpp:382] layer_128_1_conv1 -> layer_128_1_conv1
I1114 07:42:39.095219 25892 net.cpp:124] Setting up layer_128_1_conv1
I1114 07:42:39.095252 25892 net.cpp:131] Top shape: 10 128 28 28 (1003520)
I1114 07:42:39.095257 25892 net.cpp:139] Memory required for data: 262922360
I1114 07:42:39.095265 25892 layer_factory.hpp:77] Creating layer layer_128_1_bn2
I1114 07:42:39.095275 25892 net.cpp:86] Creating Layer layer_128_1_bn2
I1114 07:42:39.095280 25892 net.cpp:408] layer_128_1_bn2 <- layer_128_1_conv1
I1114 07:42:39.095289 25892 net.cpp:369] layer_128_1_bn2 -> layer_128_1_conv1 (in-place)
I1114 07:42:39.095551 25892 net.cpp:124] Setting up layer_128_1_bn2
I1114 07:42:39.095572 25892 net.cpp:131] Top shape: 10 128 28 28 (1003520)
I1114 07:42:39.095577 25892 net.cpp:139] Memory required for data: 266936440
I1114 07:42:39.095609 25892 layer_factory.hpp:77] Creating layer layer_128_1_scale2
I1114 07:42:39.095630 25892 net.cpp:86] Creating Layer layer_128_1_scale2
I1114 07:42:39.095636 25892 net.cpp:408] layer_128_1_scale2 <- layer_128_1_conv1
I1114 07:42:39.095643 25892 net.cpp:369] layer_128_1_scale2 -> layer_128_1_conv1 (in-place)
I1114 07:42:39.095706 25892 layer_factory.hpp:77] Creating layer layer_128_1_scale2
I1114 07:42:39.095849 25892 net.cpp:124] Setting up layer_128_1_scale2
I1114 07:42:39.095868 25892 net.cpp:131] Top shape: 10 128 28 28 (1003520)
I1114 07:42:39.095873 25892 net.cpp:139] Memory required for data: 270950520
I1114 07:42:39.095880 25892 layer_factory.hpp:77] Creating layer layer_128_1_relu2
I1114 07:42:39.095896 25892 net.cpp:86] Creating Layer layer_128_1_relu2
I1114 07:42:39.095902 25892 net.cpp:408] layer_128_1_relu2 <- layer_128_1_conv1
I1114 07:42:39.095909 25892 net.cpp:369] layer_128_1_relu2 -> layer_128_1_conv1 (in-place)
I1114 07:42:39.098160 25892 net.cpp:124] Setting up layer_128_1_relu2
I1114 07:42:39.098199 25892 net.cpp:131] Top shape: 10 128 28 28 (1003520)
I1114 07:42:39.098206 25892 net.cpp:139] Memory required for data: 274964600
I1114 07:42:39.098210 25892 layer_factory.hpp:77] Creating layer layer_128_1_conv2
I1114 07:42:39.098234 25892 net.cpp:86] Creating Layer layer_128_1_conv2
I1114 07:42:39.098242 25892 net.cpp:408] layer_128_1_conv2 <- layer_128_1_conv1
I1114 07:42:39.098251 25892 net.cpp:382] layer_128_1_conv2 -> layer_128_1_conv2
I1114 07:42:39.108265 25892 net.cpp:124] Setting up layer_128_1_conv2
I1114 07:42:39.108297 25892 net.cpp:131] Top shape: 10 128 28 28 (1003520)
I1114 07:42:39.108304 25892 net.cpp:139] Memory required for data: 278978680
I1114 07:42:39.108312 25892 layer_factory.hpp:77] Creating layer layer_128_1_conv_expand
I1114 07:42:39.108336 25892 net.cpp:86] Creating Layer layer_128_1_conv_expand
I1114 07:42:39.108342 25892 net.cpp:408] layer_128_1_conv_expand <- layer_128_1_bn1_layer_128_1_relu1_0_split_1
I1114 07:42:39.108353 25892 net.cpp:382] layer_128_1_conv_expand -> layer_128_1_conv_expand
I1114 07:42:39.112280 25892 net.cpp:124] Setting up layer_128_1_conv_expand
I1114 07:42:39.112311 25892 net.cpp:131] Top shape: 10 128 28 28 (1003520)
I1114 07:42:39.112318 25892 net.cpp:139] Memory required for data: 282992760
I1114 07:42:39.112325 25892 layer_factory.hpp:77] Creating layer layer_128_1_sum
I1114 07:42:39.112344 25892 net.cpp:86] Creating Layer layer_128_1_sum
I1114 07:42:39.112349 25892 net.cpp:408] layer_128_1_sum <- layer_128_1_conv2
I1114 07:42:39.112356 25892 net.cpp:408] layer_128_1_sum <- layer_128_1_conv_expand
I1114 07:42:39.112363 25892 net.cpp:382] layer_128_1_sum -> layer_128_1_sum
I1114 07:42:39.112422 25892 net.cpp:124] Setting up layer_128_1_sum
I1114 07:42:39.112445 25892 net.cpp:131] Top shape: 10 128 28 28 (1003520)
I1114 07:42:39.112450 25892 net.cpp:139] Memory required for data: 287006840
I1114 07:42:39.112455 25892 layer_factory.hpp:77] Creating layer layer_256_1_bn1
I1114 07:42:39.112463 25892 net.cpp:86] Creating Layer layer_256_1_bn1
I1114 07:42:39.112475 25892 net.cpp:408] layer_256_1_bn1 <- layer_128_1_sum
I1114 07:42:39.112483 25892 net.cpp:382] layer_256_1_bn1 -> layer_256_1_bn1
I1114 07:42:39.112740 25892 net.cpp:124] Setting up layer_256_1_bn1
I1114 07:42:39.112761 25892 net.cpp:131] Top shape: 10 128 28 28 (1003520)
I1114 07:42:39.112766 25892 net.cpp:139] Memory required for data: 291020920
I1114 07:42:39.112782 25892 layer_factory.hpp:77] Creating layer layer_256_1_scale1
I1114 07:42:39.112792 25892 net.cpp:86] Creating Layer layer_256_1_scale1
I1114 07:42:39.112802 25892 net.cpp:408] layer_256_1_scale1 <- layer_256_1_bn1
I1114 07:42:39.112810 25892 net.cpp:369] layer_256_1_scale1 -> layer_256_1_bn1 (in-place)
I1114 07:42:39.112866 25892 layer_factory.hpp:77] Creating layer layer_256_1_scale1
I1114 07:42:39.113013 25892 net.cpp:124] Setting up layer_256_1_scale1
I1114 07:42:39.113032 25892 net.cpp:131] Top shape: 10 128 28 28 (1003520)
I1114 07:42:39.113037 25892 net.cpp:139] Memory required for data: 295035000
I1114 07:42:39.113070 25892 layer_factory.hpp:77] Creating layer layer_256_1_relu1
I1114 07:42:39.113087 25892 net.cpp:86] Creating Layer layer_256_1_relu1
I1114 07:42:39.113092 25892 net.cpp:408] layer_256_1_relu1 <- layer_256_1_bn1
I1114 07:42:39.113099 25892 net.cpp:369] layer_256_1_relu1 -> layer_256_1_bn1 (in-place)
I1114 07:42:39.115747 25892 net.cpp:124] Setting up layer_256_1_relu1
I1114 07:42:39.115778 25892 net.cpp:131] Top shape: 10 128 28 28 (1003520)
I1114 07:42:39.115783 25892 net.cpp:139] Memory required for data: 299049080
I1114 07:42:39.115789 25892 layer_factory.hpp:77] Creating layer layer_256_1_bn1_layer_256_1_relu1_0_split
I1114 07:42:39.115800 25892 net.cpp:86] Creating Layer layer_256_1_bn1_layer_256_1_relu1_0_split
I1114 07:42:39.115816 25892 net.cpp:408] layer_256_1_bn1_layer_256_1_relu1_0_split <- layer_256_1_bn1
I1114 07:42:39.115826 25892 net.cpp:382] layer_256_1_bn1_layer_256_1_relu1_0_split -> layer_256_1_bn1_layer_256_1_relu1_0_split_0
I1114 07:42:39.115835 25892 net.cpp:382] layer_256_1_bn1_layer_256_1_relu1_0_split -> layer_256_1_bn1_layer_256_1_relu1_0_split_1
I1114 07:42:39.115907 25892 net.cpp:124] Setting up layer_256_1_bn1_layer_256_1_relu1_0_split
I1114 07:42:39.115924 25892 net.cpp:131] Top shape: 10 128 28 28 (1003520)
I1114 07:42:39.115931 25892 net.cpp:131] Top shape: 10 128 28 28 (1003520)
I1114 07:42:39.115934 25892 net.cpp:139] Memory required for data: 307077240
I1114 07:42:39.115938 25892 layer_factory.hpp:77] Creating layer layer_256_1_conv1
I1114 07:42:39.115952 25892 net.cpp:86] Creating Layer layer_256_1_conv1
I1114 07:42:39.115967 25892 net.cpp:408] layer_256_1_conv1 <- layer_256_1_bn1_layer_256_1_relu1_0_split_0
I1114 07:42:39.115978 25892 net.cpp:382] layer_256_1_conv1 -> layer_256_1_conv1
I1114 07:42:39.122560 25892 net.cpp:124] Setting up layer_256_1_conv1
I1114 07:42:39.122593 25892 net.cpp:131] Top shape: 10 256 14 14 (501760)
I1114 07:42:39.122598 25892 net.cpp:139] Memory required for data: 309084280
I1114 07:42:39.122606 25892 layer_factory.hpp:77] Creating layer layer_256_1_bn2
I1114 07:42:39.122637 25892 net.cpp:86] Creating Layer layer_256_1_bn2
I1114 07:42:39.122644 25892 net.cpp:408] layer_256_1_bn2 <- layer_256_1_conv1
I1114 07:42:39.122653 25892 net.cpp:369] layer_256_1_bn2 -> layer_256_1_conv1 (in-place)
I1114 07:42:39.122900 25892 net.cpp:124] Setting up layer_256_1_bn2
I1114 07:42:39.122920 25892 net.cpp:131] Top shape: 10 256 14 14 (501760)
I1114 07:42:39.122925 25892 net.cpp:139] Memory required for data: 311091320
I1114 07:42:39.122934 25892 layer_factory.hpp:77] Creating layer layer_256_1_scale2
I1114 07:42:39.122952 25892 net.cpp:86] Creating Layer layer_256_1_scale2
I1114 07:42:39.122957 25892 net.cpp:408] layer_256_1_scale2 <- layer_256_1_conv1
I1114 07:42:39.122967 25892 net.cpp:369] layer_256_1_scale2 -> layer_256_1_conv1 (in-place)
I1114 07:42:39.123031 25892 layer_factory.hpp:77] Creating layer layer_256_1_scale2
I1114 07:42:39.123178 25892 net.cpp:124] Setting up layer_256_1_scale2
I1114 07:42:39.123203 25892 net.cpp:131] Top shape: 10 256 14 14 (501760)
I1114 07:42:39.123209 25892 net.cpp:139] Memory required for data: 313098360
I1114 07:42:39.123216 25892 layer_factory.hpp:77] Creating layer layer_256_1_relu2
I1114 07:42:39.123230 25892 net.cpp:86] Creating Layer layer_256_1_relu2
I1114 07:42:39.123236 25892 net.cpp:408] layer_256_1_relu2 <- layer_256_1_conv1
I1114 07:42:39.123245 25892 net.cpp:369] layer_256_1_relu2 -> layer_256_1_conv1 (in-place)
I1114 07:42:39.123807 25892 net.cpp:124] Setting up layer_256_1_relu2
I1114 07:42:39.123832 25892 net.cpp:131] Top shape: 10 256 14 14 (501760)
I1114 07:42:39.123837 25892 net.cpp:139] Memory required for data: 315105400
I1114 07:42:39.123843 25892 layer_factory.hpp:77] Creating layer layer_256_1_conv2
I1114 07:42:39.123857 25892 net.cpp:86] Creating Layer layer_256_1_conv2
I1114 07:42:39.123870 25892 net.cpp:408] layer_256_1_conv2 <- layer_256_1_conv1
I1114 07:42:39.123883 25892 net.cpp:382] layer_256_1_conv2 -> layer_256_1_conv2
I1114 07:42:39.141249 25892 net.cpp:124] Setting up layer_256_1_conv2
I1114 07:42:39.141350 25892 net.cpp:131] Top shape: 10 256 14 14 (501760)
I1114 07:42:39.141358 25892 net.cpp:139] Memory required for data: 317112440
I1114 07:42:39.141376 25892 layer_factory.hpp:77] Creating layer layer_256_1_conv_expand
I1114 07:42:39.141414 25892 net.cpp:86] Creating Layer layer_256_1_conv_expand
I1114 07:42:39.141424 25892 net.cpp:408] layer_256_1_conv_expand <- layer_256_1_bn1_layer_256_1_relu1_0_split_1
I1114 07:42:39.141438 25892 net.cpp:382] layer_256_1_conv_expand -> layer_256_1_conv_expand
I1114 07:42:39.147110 25892 net.cpp:124] Setting up layer_256_1_conv_expand
I1114 07:42:39.147156 25892 net.cpp:131] Top shape: 10 256 14 14 (501760)
I1114 07:42:39.147166 25892 net.cpp:139] Memory required for data: 319119480
I1114 07:42:39.147181 25892 layer_factory.hpp:77] Creating layer layer_256_1_sum
I1114 07:42:39.147220 25892 net.cpp:86] Creating Layer layer_256_1_sum
I1114 07:42:39.147231 25892 net.cpp:408] layer_256_1_sum <- layer_256_1_conv2
I1114 07:42:39.147243 25892 net.cpp:408] layer_256_1_sum <- layer_256_1_conv_expand
I1114 07:42:39.147264 25892 net.cpp:382] layer_256_1_sum -> layer_256_1_sum
I1114 07:42:39.147325 25892 net.cpp:124] Setting up layer_256_1_sum
I1114 07:42:39.147351 25892 net.cpp:131] Top shape: 10 256 14 14 (501760)
I1114 07:42:39.147369 25892 net.cpp:139] Memory required for data: 321126520
I1114 07:42:39.147377 25892 layer_factory.hpp:77] Creating layer layer_512_1_bn1
I1114 07:42:39.147392 25892 net.cpp:86] Creating Layer layer_512_1_bn1
I1114 07:42:39.147400 25892 net.cpp:408] layer_512_1_bn1 <- layer_256_1_sum
I1114 07:42:39.147421 25892 net.cpp:382] layer_512_1_bn1 -> layer_512_1_bn1
I1114 07:42:39.147799 25892 net.cpp:124] Setting up layer_512_1_bn1
I1114 07:42:39.147825 25892 net.cpp:131] Top shape: 10 256 14 14 (501760)
I1114 07:42:39.147835 25892 net.cpp:139] Memory required for data: 323133560
I1114 07:42:39.147858 25892 layer_factory.hpp:77] Creating layer layer_512_1_scale1
I1114 07:42:39.147881 25892 net.cpp:86] Creating Layer layer_512_1_scale1
I1114 07:42:39.147894 25892 net.cpp:408] layer_512_1_scale1 <- layer_512_1_bn1
I1114 07:42:39.147912 25892 net.cpp:369] layer_512_1_scale1 -> layer_512_1_bn1 (in-place)
I1114 07:42:39.148002 25892 layer_factory.hpp:77] Creating layer layer_512_1_scale1
I1114 07:42:39.148211 25892 net.cpp:124] Setting up layer_512_1_scale1
I1114 07:42:39.148237 25892 net.cpp:131] Top shape: 10 256 14 14 (501760)
I1114 07:42:39.148255 25892 net.cpp:139] Memory required for data: 325140600
I1114 07:42:39.148268 25892 layer_factory.hpp:77] Creating layer layer_512_1_relu1
I1114 07:42:39.148286 25892 net.cpp:86] Creating Layer layer_512_1_relu1
I1114 07:42:39.148299 25892 net.cpp:408] layer_512_1_relu1 <- layer_512_1_bn1
I1114 07:42:39.148316 25892 net.cpp:369] layer_512_1_relu1 -> layer_512_1_bn1 (in-place)
I1114 07:42:39.149122 25892 net.cpp:124] Setting up layer_512_1_relu1
I1114 07:42:39.149159 25892 net.cpp:131] Top shape: 10 256 14 14 (501760)
I1114 07:42:39.149178 25892 net.cpp:139] Memory required for data: 327147640
I1114 07:42:39.149197 25892 layer_factory.hpp:77] Creating layer layer_512_1_bn1_layer_512_1_relu1_0_split
I1114 07:42:39.149212 25892 net.cpp:86] Creating Layer layer_512_1_bn1_layer_512_1_relu1_0_split
I1114 07:42:39.149232 25892 net.cpp:408] layer_512_1_bn1_layer_512_1_relu1_0_split <- layer_512_1_bn1
I1114 07:42:39.149246 25892 net.cpp:382] layer_512_1_bn1_layer_512_1_relu1_0_split -> layer_512_1_bn1_layer_512_1_relu1_0_split_0
I1114 07:42:39.149272 25892 net.cpp:382] layer_512_1_bn1_layer_512_1_relu1_0_split -> layer_512_1_bn1_layer_512_1_relu1_0_split_1
I1114 07:42:39.149369 25892 net.cpp:124] Setting up layer_512_1_bn1_layer_512_1_relu1_0_split
I1114 07:42:39.149396 25892 net.cpp:131] Top shape: 10 256 14 14 (501760)
I1114 07:42:39.149418 25892 net.cpp:131] Top shape: 10 256 14 14 (501760)
I1114 07:42:39.149430 25892 net.cpp:139] Memory required for data: 331161720
I1114 07:42:39.149443 25892 layer_factory.hpp:77] Creating layer layer_512_1_conv1
I1114 07:42:39.149468 25892 net.cpp:86] Creating Layer layer_512_1_conv1
I1114 07:42:39.149523 25892 net.cpp:408] layer_512_1_conv1 <- layer_512_1_bn1_layer_512_1_relu1_0_split_0
I1114 07:42:39.149547 25892 net.cpp:382] layer_512_1_conv1 -> layer_512_1_conv1
I1114 07:42:39.184870 25892 net.cpp:124] Setting up layer_512_1_conv1
I1114 07:42:39.184934 25892 net.cpp:131] Top shape: 10 512 7 7 (250880)
I1114 07:42:39.184943 25892 net.cpp:139] Memory required for data: 332165240
I1114 07:42:39.184964 25892 layer_factory.hpp:77] Creating layer layer_512_1_bn2
I1114 07:42:39.184986 25892 net.cpp:86] Creating Layer layer_512_1_bn2
I1114 07:42:39.185009 25892 net.cpp:408] layer_512_1_bn2 <- layer_512_1_conv1
I1114 07:42:39.185027 25892 net.cpp:369] layer_512_1_bn2 -> layer_512_1_conv1 (in-place)
I1114 07:42:39.185463 25892 net.cpp:124] Setting up layer_512_1_bn2
I1114 07:42:39.185505 25892 net.cpp:131] Top shape: 10 512 7 7 (250880)
I1114 07:42:39.185514 25892 net.cpp:139] Memory required for data: 333168760
I1114 07:42:39.185530 25892 layer_factory.hpp:77] Creating layer layer_512_1_scale2
I1114 07:42:39.185559 25892 net.cpp:86] Creating Layer layer_512_1_scale2
I1114 07:42:39.185576 25892 net.cpp:408] layer_512_1_scale2 <- layer_512_1_conv1
I1114 07:42:39.185590 25892 net.cpp:369] layer_512_1_scale2 -> layer_512_1_conv1 (in-place)
I1114 07:42:39.185680 25892 layer_factory.hpp:77] Creating layer layer_512_1_scale2
I1114 07:42:39.185905 25892 net.cpp:124] Setting up layer_512_1_scale2
I1114 07:42:39.185932 25892 net.cpp:131] Top shape: 10 512 7 7 (250880)
I1114 07:42:39.185950 25892 net.cpp:139] Memory required for data: 334172280
I1114 07:42:39.185963 25892 layer_factory.hpp:77] Creating layer layer_512_1_relu2
I1114 07:42:39.185986 25892 net.cpp:86] Creating Layer layer_512_1_relu2
I1114 07:42:39.185998 25892 net.cpp:408] layer_512_1_relu2 <- layer_512_1_conv1
I1114 07:42:39.186015 25892 net.cpp:369] layer_512_1_relu2 -> layer_512_1_conv1 (in-place)
I1114 07:42:39.186874 25892 net.cpp:124] Setting up layer_512_1_relu2
I1114 07:42:39.186910 25892 net.cpp:131] Top shape: 10 512 7 7 (250880)
I1114 07:42:39.186924 25892 net.cpp:139] Memory required for data: 335175800
I1114 07:42:39.186933 25892 layer_factory.hpp:77] Creating layer layer_512_1_conv2
I1114 07:42:39.186955 25892 net.cpp:86] Creating Layer layer_512_1_conv2
I1114 07:42:39.186975 25892 net.cpp:408] layer_512_1_conv2 <- layer_512_1_conv1
I1114 07:42:39.186996 25892 net.cpp:382] layer_512_1_conv2 -> layer_512_1_conv2
I1114 07:42:39.239750 25892 net.cpp:124] Setting up layer_512_1_conv2
I1114 07:42:39.239820 25892 net.cpp:131] Top shape: 10 512 7 7 (250880)
I1114 07:42:39.239833 25892 net.cpp:139] Memory required for data: 336179320
I1114 07:42:39.239857 25892 layer_factory.hpp:77] Creating layer layer_512_1_conv_expand
I1114 07:42:39.239897 25892 net.cpp:86] Creating Layer layer_512_1_conv_expand
I1114 07:42:39.239913 25892 net.cpp:408] layer_512_1_conv_expand <- layer_512_1_bn1_layer_512_1_relu1_0_split_1
I1114 07:42:39.239941 25892 net.cpp:382] layer_512_1_conv_expand -> layer_512_1_conv_expand
I1114 07:42:39.257979 25892 net.cpp:124] Setting up layer_512_1_conv_expand
I1114 07:42:39.258045 25892 net.cpp:131] Top shape: 10 512 7 7 (250880)
I1114 07:42:39.258052 25892 net.cpp:139] Memory required for data: 337182840
I1114 07:42:39.258069 25892 layer_factory.hpp:77] Creating layer layer_512_1_sum
I1114 07:42:39.258085 25892 net.cpp:86] Creating Layer layer_512_1_sum
I1114 07:42:39.258093 25892 net.cpp:408] layer_512_1_sum <- layer_512_1_conv2
I1114 07:42:39.258101 25892 net.cpp:408] layer_512_1_sum <- layer_512_1_conv_expand
I1114 07:42:39.258111 25892 net.cpp:382] layer_512_1_sum -> layer_512_1_sum
I1114 07:42:39.258201 25892 net.cpp:124] Setting up layer_512_1_sum
I1114 07:42:39.258224 25892 net.cpp:131] Top shape: 10 512 7 7 (250880)
I1114 07:42:39.258227 25892 net.cpp:139] Memory required for data: 338186360
I1114 07:42:39.258234 25892 layer_factory.hpp:77] Creating layer last_bn
I1114 07:42:39.258244 25892 net.cpp:86] Creating Layer last_bn
I1114 07:42:39.258256 25892 net.cpp:408] last_bn <- layer_512_1_sum
I1114 07:42:39.258291 25892 net.cpp:369] last_bn -> layer_512_1_sum (in-place)
I1114 07:42:39.258754 25892 net.cpp:124] Setting up last_bn
I1114 07:42:39.258787 25892 net.cpp:131] Top shape: 10 512 7 7 (250880)
I1114 07:42:39.258795 25892 net.cpp:139] Memory required for data: 339189880
I1114 07:42:39.258826 25892 layer_factory.hpp:77] Creating layer last_scale
I1114 07:42:39.258848 25892 net.cpp:86] Creating Layer last_scale
I1114 07:42:39.258862 25892 net.cpp:408] last_scale <- layer_512_1_sum
I1114 07:42:39.258877 25892 net.cpp:369] last_scale -> layer_512_1_sum (in-place)
I1114 07:42:39.258976 25892 layer_factory.hpp:77] Creating layer last_scale
I1114 07:42:39.259235 25892 net.cpp:124] Setting up last_scale
I1114 07:42:39.259263 25892 net.cpp:131] Top shape: 10 512 7 7 (250880)
I1114 07:42:39.259281 25892 net.cpp:139] Memory required for data: 340193400
I1114 07:42:39.259295 25892 layer_factory.hpp:77] Creating layer last_relu
I1114 07:42:39.259316 25892 net.cpp:86] Creating Layer last_relu
I1114 07:42:39.259335 25892 net.cpp:408] last_relu <- layer_512_1_sum
I1114 07:42:39.259351 25892 net.cpp:369] last_relu -> layer_512_1_sum (in-place)
I1114 07:42:39.260152 25892 net.cpp:124] Setting up last_relu
I1114 07:42:39.260195 25892 net.cpp:131] Top shape: 10 512 7 7 (250880)
I1114 07:42:39.260205 25892 net.cpp:139] Memory required for data: 341196920
I1114 07:42:39.260223 25892 layer_factory.hpp:77] Creating layer global_pool
I1114 07:42:39.260238 25892 net.cpp:86] Creating Layer global_pool
I1114 07:42:39.260257 25892 net.cpp:408] global_pool <- layer_512_1_sum
I1114 07:42:39.260272 25892 net.cpp:382] global_pool -> global_pool
I1114 07:42:39.261137 25892 net.cpp:124] Setting up global_pool
I1114 07:42:39.261171 25892 net.cpp:131] Top shape: 10 512 1 1 (5120)
I1114 07:42:39.261180 25892 net.cpp:139] Memory required for data: 341217400
I1114 07:42:39.261204 25892 layer_factory.hpp:77] Creating layer score
I1114 07:42:39.261220 25892 net.cpp:86] Creating Layer score
I1114 07:42:39.261236 25892 net.cpp:408] score <- global_pool
I1114 07:42:39.261251 25892 net.cpp:382] score -> score
I1114 07:42:39.288879 25892 net.cpp:124] Setting up score
I1114 07:42:39.288955 25892 net.cpp:131] Top shape: 10 10000 (100000)
I1114 07:42:39.288964 25892 net.cpp:139] Memory required for data: 341617400
I1114 07:42:39.289006 25892 layer_factory.hpp:77] Creating layer score_score_0_split
I1114 07:42:39.289041 25892 net.cpp:86] Creating Layer score_score_0_split
I1114 07:42:39.289053 25892 net.cpp:408] score_score_0_split <- score
I1114 07:42:39.289068 25892 net.cpp:382] score_score_0_split -> score_score_0_split_0
I1114 07:42:39.289099 25892 net.cpp:382] score_score_0_split -> score_score_0_split_1
I1114 07:42:39.289201 25892 net.cpp:124] Setting up score_score_0_split
I1114 07:42:39.289225 25892 net.cpp:131] Top shape: 10 10000 (100000)
I1114 07:42:39.289234 25892 net.cpp:131] Top shape: 10 10000 (100000)
I1114 07:42:39.289252 25892 net.cpp:139] Memory required for data: 342417400
I1114 07:42:39.289260 25892 layer_factory.hpp:77] Creating layer loss
I1114 07:42:39.289273 25892 net.cpp:86] Creating Layer loss
I1114 07:42:39.289280 25892 net.cpp:408] loss <- score_score_0_split_0
I1114 07:42:39.289300 25892 net.cpp:408] loss <- label_test_input_layer_1_split_0
I1114 07:42:39.289312 25892 net.cpp:382] loss -> loss
…
